ML/embedder_model.pt (torch, 55343 bytes, 8 tensors)

encoder.0.weight f4 [48, 100]
000000 e8 fa f8 3d 63 60 7b 3d 75 7f a1 3d 50 ad dc bd
       0.121572316 0.06137122 0.078856386 -0.10775244
000010 c1 38 78 3d 33 56 fc bd e0 69 51 bd 7a f4 da bd
       0.060601 -0.12321129 -0.05112636 -0.106911615
000020 21 c5 11 be 7a a6 c6 bd e5 79 3a 3d 35 55 ac 3d
       -0.14235355 -0.09699722 0.045526404 0.084146895
000030 d2 2f 2c 3d 69 e9 df 3d 60 fd 40 bd eb 17 9d 3d
       0.042037793 0.10933191 -0.047116637 0.076705776
000040 6c b4 27 be a0 be 30 bd c5 f4 bd bd ff ec df bd
       -0.16377419 -0.043150544 -0.09275202 -0.10933875
000050 e3 81 a5 3d 4f c5 72 3d 1f ce d5 bd c5 46 03 3e
       0.080814146 0.0592702 -0.10439705 0.12819965
000060 7d ab 33 bd 83 6a 9b bc 2e c1 bf b9 f6 9a 06 be
       -0.043864716 -0.018971687 -0.0003657429 -0.1314505
000070 27 6b 7d 3d 3f 46 cf bb 96 a0 c6 bc 9a b4 10 3d
       0.061869767 -0.0063255127 -0.024246495 0.035328485
000080 f9 75 c9 3d 67 98 b8 3d ec 49 16 3e 45 7b c1 3d
       0.098369546 0.090134434 0.14676636 0.0944734
000090 eb 95 0c be 10 d5 9a 3d a5 b1 9c 3d 5b 7f 35 bd
       -0.13729064 0.0756017 0.076510705 -0.04431091
0000a0 34 3b d2 3d ec 3d ae bc 07 84 e7 bd 8d 69 11 be
       0.10265198 -0.021269761 -0.11304479 -0.1420042
0000b0 ce 0e 03 be 7e 9e 0b 3c c1 3c 09 bd 59 d9 df bc
       -0.12798616 0.008521674 -0.033505205 -0.02732532
0000c0 ec 28 fc bd 9e 20 05 3e 51 10 49 3c cb c4 9c bd
       -0.12312493 0.13000724 0.012271957 -0.07654723
0000d0 64 0f e8 3c 71 4f 49 3d c6 9f 82 bd 97 9b 4f 3d
       0.028327651 0.049148027 -0.063781306 0.05068549
0000e0 89 a3 dc 3d 0a 11 51 bd bf 8a 01 3e 26 0c 2b 3d
       0.10773379 -0.05104164 0.12650584 0.041759633
0000f0 86 34 f1 3c 47 68 55 bb 14 d3 df 3d fc bc 0d 3e
       0.02944399 -0.0032563375 0.10928932 0.13841623
000100 a9 e8 4e 3d 6f 37 f3 3c 7a 34 b6 3c b9 44 e9 bc
       0.05051485 0.029689519 0.02224182 -0.028475152
000110 49 ac 03 3e ea f7 df 3d 12 ec 45 3d 69 39 c8 bc
       0.1285869 0.10935958 0.048320837 -0.024441438
000120 59 27 27 bd ec de c9 3c 69 f6 b3 3d f4 41 c0 3d
       -0.04080901 0.02464243 0.087872334 0.093875796
000130 76 d4 bb 3d a8 5b 8b 3d 83 82 ae bc f4 d1 bf bd
       0.09171383 0.068045914 -0.021302467 -0.09366217
000140 73 7f 7d 3d d2 38 06 3d 39 93 1a 3d f8 b5 88 3c
       0.061889123 0.03276903 0.03773806 0.016688332
000150 f0 f0 b2 3d 6f ad 4e bc 33 b1 fb 3d 37 71 a7 3d
       0.087373614 -0.012614592 0.122896574 0.08175891
000160 2e b9 71 3d 36 d5 d8 3c a6 26 6e bd 76 57 ce bc
       0.05901449 0.026468854 -0.058142327 -0.025188189
000170 cd a6 b6 3d 7f a7 8a 3d ab 33 6e ba 09 c0 b9 3b
       0.089185335 0.067702286 -0.00090866786 0.0056686443
000180 0d 99 10 3c d0 08 b0 3d 9d cf b9 3c 81 32 c6 3c
       0.008825553 0.08595431 0.022682006 0.024194004
000190 66 8c 66 3d a6 cd 39 bc f1 e9 1a 3d cc 31 0c be
       0.056286238 -0.011340534 0.03782076 -0.13690871
0001a0 72 f2 ff bd 19 76 f4 3c 7c 4b 93 bd 52 77 3d bc
       -0.12497415 0.02984147 -0.07192132 -0.011564093
0001b0 6c b5 96 bc 06 21 05 3d 3a f6 12 be 8f 86 c2 ba
       -0.018397056 0.032502197 -0.1435174 -0.0014841127
0001c0 94 0c 0f 3e 51 f4 5e bd a1 ce f5 3c af e4 56 bd
       0.13969642 -0.054432217 0.030005755 -0.052464183
0001d0 12 5a bf 3d 33 54 81 39 1e b5 be bd 29 d2 01 be
       0.093433514 0.0002466753 -0.09311889 -0.12677826
0001e0 44 7b 82 bd 8c f1 cf 3d e7 b2 56 3d b4 e7 4e 3d
       -0.06371167 0.10153493 0.05241671 0.050513938
0001f0 c0 6a 09 3e 1b b9 64 bd 22 8a af 3b d5 09 38 bc
       0.13419628 -0.055840593 0.005357043 -0.011232813
000200 fa 19 a3 bd d8 3a 10 3e e6 b0 bd bd 28 6d 35 3c
       -0.07963939 0.14084947 -0.09262256 0.011073388
000210 0c 6f 5b bd 43 3b 3f 3d 9f 19 98 3d 9a 02 59 bc
       -0.0535727 0.046687376 0.07426762 -0.013245249
000220 fe 5f e6 bb 59 d3 ff bd 70 40 12 3d 17 2d fc 3d
       -0.007030486 -0.12491483 0.035705984 0.12313288
000230 de 88 d1 3d f0 37 29 3d 38 e3 92 3d eb 4d 41 bd
       0.102311835 0.04131311 0.07172245 -0.04719345
000240 0e f7 95 3d 8c 56 4e 3c db 86 19 3e 98 b5 91 3d
       0.073225126 0.012593877 0.1499285 0.071147144
000250 4b 18 a1 3d 0d d5 c1 3d 48 b6 5c bb dd d2 0c 3e
       0.07865962 0.09464464 -0.0033677984 0.13752313
000260 fa 1b 54 bd ff 2d 2d 3d 15 55 88 3d 8e ae 29 bc
       -0.051784493 0.042280193 0.06656853 -0.0103565585
000270 f6 ce 89 3d 41 dd d8 3d ae 24 a8 3d cb d1 a1 3c
       0.06728928 0.10589076 0.08210121 0.019753357
000280 33 53 e8 bd 12 c8 53 3d c0 b0 a4 3d 3c d9 67 bb
       -0.11343994 0.051704474 0.08041525 -0.0035377285
000290 b1 f3 02 bc 2b c2 4d bd 04 bd c0 3c 23 91 75 bd
       -0.007992671 -0.050234 0.02352763 -0.059952866
0002a0 65 73 1b 3e cc 2c ba bd 08 26 8b bd 32 e9 6d bc
       0.15180738 -0.090905756 -0.06794363 -0.01452093
0002b0 8c 35 f5 3d 3a a8 24 3e 2b 29 a0 bc 07 62 aa bd
       0.11973104 0.16079798 -0.01955088 -0.083194785
0002c0 7a e1 a6 3d 99 41 79 3d e1 62 81 3d d2 54 26 3d
       0.08148475 0.060853574 0.06317688 0.040608235
0002d0 6d 19 92 3d 15 86 3d 3d 91 ae b3 3c e2 62 18 bd
       0.07133756 0.04627045 0.021933826 -0.037203677
0002e0 76 de 23 3d 02 78 04 3e 82 d0 4b 3d 25 07 4e 3d
       0.040007077 0.12936404 0.049759395 0.050299782
0002f0 10 13 b1 3d 53 22 f9 3c 9d cf fd 3c 3a 7f b7 bd
       0.08646214 0.030411875 0.030982787 -0.089598134
000300 d7 5f 9a 3d 62 1b e1 bd 23 46 2b 3d 19 d0 1e bd
       0.07537811 -0.10991551 0.041814934 -0.038772676
000310 e4 ee 9d bd 94 b2 a3 3c c3 f4 e0 bc 72 a7 bf 3c
       -0.077115804 0.019982614 -0.027460461 0.023395274
000320 5d 45 de 3d c6 cf 64 3d 8c 5d 8e bc 64 54 11 bd
       0.10853074 0.05586221 -0.017378591 -0.03548087
000330 3a c9 94 3c ce 97 0a be dc 07 9b 3d f1 27 fb bb
       0.018162359 -0.13534471 0.075698584 -0.0076646735
000340 e4 5c bb 3d 32 c4 ea bc e0 a5 a1 3d 8b f6 a4 3d
       0.09148577 -0.028658006 0.07892966 0.08054837
000350 7b 24 e3 3d 28 df 6b bd f4 43 50 bd 84 c3 f8 3c
       0.110909425 -0.057585865 -0.050846055 0.030366667
000360 bd 7c 50 3d 63 7b ad bb 54 f4 52 bd 33 00 c9 bd
       0.05090021 -0.00529425 -0.05150254 -0.09814491
000370 29 46 37 bd 22 11 02 be 0d 8e 04 bb e4 87 d9 3c
       -0.044744644 -0.12701848 -0.002022627 0.026554056
000380 e1 b1 09 3e a9 0d af 3d 73 2d 6e bd c7 80 3e 3b
       0.13446762 0.08547527 -0.058148813 0.0029068456
000390 7c 20 29 bd 6f db 09 3e 77 e9 df bd f7 e4 1c bd
       -0.041290745 0.13462614 -0.10933202 -0.038304295
0003a0 bc a6 ce bc 3a 83 81 bd 8a df 24 3e 10 23 d5 bc
       -0.02522599 -0.063238576 0.16100898 -0.026017696
0003b0 6f b8 43 3d 39 be f0 3c 61 2d ca bd 23 1f 1c 3e
       0.04778331 0.02938758 -0.098719366 0.15246253
0003c0 93 41 d1 3d c3 44 2a 3d e9 68 61 bc 96 92 92 bb
       0.102175854 0.041569483 -0.013757923 -0.004473041
0003d0 2f 33 b5 bd 7c 6f a9 bd 2c 4b 3c 3d 77 86 3c bd
       -0.08847653 -0.08273217 0.045970127 -0.046026673
0003e0 d3 6b 8b 3d 65 ef af bd 26 77 1d 3e d7 3f 3c 3d
       0.06807675 -0.08590583 0.15377483 0.04595932
0003f0 90 34 e1 3d 46 19 e6 bd d4 32 fb bb 52 eb fe 38
       0.109963536 -0.11235289 -0.0076659713 0.00012155496

encoder.0.bias f4 [48]
000000 c1 8e e1 3d 25 da d3 bc ac 57 27 3c cd 35 94 bd
       0.11013556 -0.025860855 0.010213774 -0.07236824
000010 40 86 2c 3d 6b 59 57 3d a3 74 3f bd 5c 37 bd bd
       0.04212022 0.05257551 -0.046742093 -0.092390746
000020 97 61 b2 3d b3 85 d5 3c ad a7 28 bc 10 a6 c1 3d
       0.0871002 0.02606473 -0.010293883 0.09455502
000030 59 57 16 3d 8f 15 0d bd e3 85 4d 3c c9 a3 cc 3d
       0.036704395 -0.034444388 0.012544128 0.09992177
000040 77 06 8b bd da 2d c9 3d 34 39 bf 3d d7 f0 21 3d
       -0.067883424 0.098231986 0.093370825 0.039536323
000050 62 6c 5a 3d a3 de b6 3c f9 7c a1 3d 8b f2 fd 3c
       0.05332602 0.022322958 0.07885165 0.030999443
000060 f7 b1 9a bd 0d fd 58 3d 29 9c 6b bb d3 c3 78 bd
       -0.07553475 0.052975703 -0.0035951233 -0.060733628
000070 c5 89 46 3c 16 7f e7 3d 00 ac 94 3d 9c 9a eb 3a
       0.012117808 0.113035366 0.07259369 0.0017975154
000080 ca 11 01 3d 8e e4 89 bb 7f 44 1a 3d 9d 3e ea 3d
       0.031511106 -0.004208154 0.03766298 0.11437724
000090 04 77 62 bc dc 80 fa 3c be aa 80 3c 8d 99 4b 3d
       -0.013822321 0.030579023 0.015706416 0.049706984
0000a0 e7 0b 0f bd ca 0b a9 3d 5a 5b 77 bd f0 59 be 3d
       -0.03492346 0.08254202 -0.060389854 0.09294498
0000b0 9a 1b 48 3b 07 16 c7 3c cb 07 67 3d 5b 7f 8a bd
       0.003053403 0.024302496 0.056403916 -0.067625724

encoder.2.weight f4 [32, 48]
000000 50 c8 f7 bd ea d4 e9 bd c4 2b ea 3d 9e 46 a1 3d
       -0.120987535 -0.11417563 0.11434129 0.07874797
000010 0f c0 18 be 1d 0e 3a 3e 9b 0c 72 bd 68 6e 01 be
       -0.14917015 0.18169446 -0.059094053 -0.12639773
000020 8c ae 34 bd d0 cd 18 3e e7 f0 c5 bd 50 e3 1c 3e
       -0.044111773 0.14922261 -0.09665089 0.15321088
000030 41 17 fe bc 7d e9 30 bd 0e ac 88 bd 8d aa 77 3d
       -0.031016948 -0.04319142 -0.06673442 0.060465384
000040 82 77 ba bb 08 82 a8 3d 6d ac e4 3d 0f 6f 0e 3d
       -0.005690516 0.082279265 0.111657 0.034773882
000050 d6 d9 6c bd 96 95 00 3e 7f 50 0c bd 2a cb 2f 3e
       -0.057824932 0.12557063 -0.034256455 0.17167345
000060 5e 16 f3 3d ae 9c 49 3d db 31 1d bd 9e d4 33 3e
       0.118695006 0.049221687 -0.038377624 0.17561576
000070 07 b2 0d 3e a3 3d 08 bd cd 53 86 bc b9 18 8d bd
       0.13837443 -0.033261906 -0.016397381 -0.06889481
000080 32 af 80 3d 0c 05 74 3d 78 a0 bf 3c 20 07 6e bb
       0.06283416 0.059575126 0.023391947 -0.0036320165
000090 40 a0 13 3e 0b de 3c 3e 82 72 17 bd b3 97 c0 3c
       0.144166 0.18444078 -0.036974438 0.023509836
0000a0 f6 f8 16 3e 9d d9 0d 3e d6 cb 59 3d 80 b0 1a 3d
       0.14743409 0.13852544 0.05317291 0.03776598
0000b0 6f b9 4f 3e e2 b6 84 bd fa ea af 3d 8e 72 dc 3b
       0.20285581 -0.06480195 0.0858974 0.006727523
0000c0 fe c1 f5 3c 6e 8f 5e 3d 14 89 2f bd db 05 90 bd
       0.02999973 0.054336004 -0.042855337 -0.07032367
0000d0 42 57 b5 3d 63 86 0e be e6 05 cd bd 6f 69 35 bd
       0.08854534 -0.13918452 -0.10010891 -0.044290002
0000e0 4e 0a f3 bc 32 ee b3 bd b8 0e 5b bc 95 8b b2 3d
       -0.029668 -0.087856665 -0.013370208 0.087180294
0000f0 bc 77 65 bd c9 0e 37 3d 2a 21 c2 bb 58 e9 5d 3d
       -0.05602239 0.044691835 -0.0059243636 0.054177612
000100 de bc 46 3c 2a 16 f8 3c 1a ca 22 be 0d 97 1c 3e
       0.01212999 0.030284006 -0.15897408 0.15291996
000110 5a 05 2f 3d 05 b0 a4 bd 52 1e ba 3d a0 9d 1a be
       0.042729713 -0.080413856 0.090878144 -0.15099192
000120 cc 1d 82 3d 08 c1 06 3e 7e 77 6c be 9d 8b ab 3d
       0.063533396 0.13159573 -0.23092458 0.083762385
000130 76 bb 97 3d 40 94 9b 3d 41 b4 8c 3d aa 44 fd bd
       0.07408802 0.07596636 0.06870318 -0.12366612
000140 6a 5e 7c bc 9d a1 15 3e 5d 00 e7 3b 6d 64 a2 bd
       -0.015403369 0.14612432 0.007049604 -0.07929311
000150 32 5b e6 3d ce 1d 8c 3d c9 d9 c3 3d 5e 62 95 3d
       0.11247863 0.06841622 0.095630236 0.07294153
000160 a3 a0 19 3d 83 00 15 be f0 15 e7 bd 3b 72 9d 3d
       0.03750671 -0.14550976 -0.11283481 0.07687803
000170 43 f6 89 bb 0d b0 cb bc c7 e7 05 be ca 1b 2f bd
       -0.004210265 -0.024864221 -0.13076697 -0.04275111
000180 43 5e 2c 3d 9a 2c 2f 3e 9d bf a9 3d 4f 28 ca bd
       0.042082082 0.17106858 0.082885005 -0.098709695
000190 ca e0 2f bd 09 5a a7 3d b1 6e 48 3e 3a 91 b6 3d
       -0.042938985 0.0817147 0.19573475 0.089144185
0001a0 96 e8 51 bd 42 4e 02 3e f8 46 9c 3d ab 95 23 3e
       -0.0512472 0.12725165 0.07630724 0.15975063
0001b0 a2 fb 8c bd e9 0a 51 be 27 89 23 3e 52 1c c9 bc
       -0.06883933 -0.20414318 0.15970288 -0.024549637
0001c0 97 90 94 bd c8 f4 af bd a1 13 94 bd af 6c 82 3d
       -0.07254141 -0.0859161 -0.072303064 0.06368386
0001d0 17 94 31 3d 12 0a ed bd 74 4c 0f 3e bd 95 62 3d
       0.04335412 -0.115741864 0.13994008 0.055318583
0001e0 86 12 cd 3c 42 8a 5d 3e 62 d7 e2 bd 30 58 c4 3d
       0.025033247 0.21634772 -0.11076237 0.09587133
0001f0 3d 8e 54 bd 62 65 0b 3e 24 d7 0d 3e 01 12 c4 bc
       -0.05189346 0.13612893 0.13851601 -0.023934366
000200 e5 6b 8f bd 73 3e f5 3d 8a 00 aa 3c 0e ce 60 3c
       -0.07003001 0.11974802 0.02075221 0.013721002
000210 af d1 2b be a5 7f 7e bd 8a 01 47 bd e9 6d 98 3d
       -0.16779207 -0.06213345 -0.048585452 0.07442839
000220 94 ea a4 3b fc bd 94 bd 99 ad 93 bd 28 2d a4 3d
       0.0050328467 -0.07262799 -0.072108455 0.08016425
000230 cc 3a 49 be f1 0d 6a bc 85 e5 e9 bc 92 24 a5 bd
       -0.19651335 -0.01428555 -0.028551826 -0.08063616
000240 6d 0a c2 3d c0 3d 37 3e ce 3e 12 3e 89 b2 d2 bd
       0.09474645 0.1789465 0.1428177 -0.10287959
000250 e3 5e 04 be 3f 36 4b bd b3 fa 79 3d 5e eb 8e bd
       -0.12926821 -0.04961228 0.0610301 -0.069784865
000260 78 00 76 3d f2 d0 18 3c 46 0d 01 be 9b fa 65 bd
       0.06005904 0.00932716 -0.1260272 -0.0561472
000270 76 1e ec bd 20 2e 10 3e 11 9a b8 3d 9c 92 0e bc
       -0.115292475 0.14080095 0.09013761 -0.008701947
000280 3c 57 61 bc 60 ce b8 bd 1f c8 6a 3e 5b 2a b3 3d
       -0.013753708 -0.09023738 0.22927903 0.08748313
000290 ce 37 eb 3d c6 f1 01 be 24 67 07 bd f7 c0 03 bd
       0.11485253 -0.12689885 -0.033057347 -0.032166447
0002a0 ce a6 9b 3d bb 2d 74 bd cb 6f 5d 3d fa 7c a8 ba
       0.07600175 -0.059613924 0.054061692 -0.0012854629
0002b0 e0 6b 28 bd 2b 1b 9a 3c 7d ac 8c bc 1b 28 f7 bd
       -0.041118503 0.018811783 -0.017172093 -0.120681964
0002c0 cb c3 de bd f4 af 15 bd 64 ba 15 3e cb b4 28 3e
       -0.10877188 -0.036544755 0.14621884 0.16475217
0002d0 b4 09 f6 3c 50 e7 87 3d 50 13 12 3e 30 c9 f3 bd
       0.030033924 0.06635916 0.1426518 -0.11903608
0002e0 81 a1 7d 3c 39 e5 a9 bd ec e9 59 3d 57 05 d3 3d
       0.0154804 -0.08295674 0.0532016 0.10303753
0002f0 73 29 89 3c 1d 5c cf 3d 47 98 71 bd 78 eb 42 bc
       0.016743397 0.10124991 -0.058983114 -0.01189696
000300 4f 96 d7 bd a6 dc de 3c 1b dc b1 bd 53 11 b1 3d
       -0.10526716 0.027204823 -0.0868456 0.086458825
000310 6f e6 01 be 7d 19 1b 3e da ff 1e be a2 4d 93 3d
       -0.1268556 0.15146442 -0.15527287 0.07192542
000320 eb af 04 3e 2d 79 8f bd 4f 31 91 ba 1d f6 a2 3d
       0.12957732 -0.07005534 -0.0011077317 0.07957099
000330 71 a1 de 3d 0a 6b 02 3e 0a 25 13 be b8 c7 c2 3d
       0.10870636 0.12736145 -0.14369598 0.095107496
000340 79 75 3e be 0a 5c e5 bd 93 01 98 3d 16 f1 db bd
       -0.185995 -0.11199196 0.07422175 -0.10739343
000350 11 90 f8 bd 60 bf ad bd b5 f8 23 be bf 94 1d bd
       -0.121368535 -0.084837675 -0.16012843 -0.038471933
000360 13 17 f2 3c 23 bc 1e be 24 bc 1e 3d c5 eb 73 bd
       0.029552018 -0.15501456 0.038753644 -0.05955102
000370 11 ca 19 be ad 39 c3 3d c3 b7 1d 3d e4 e0 9b bd
       -0.15018488 0.09532485 0.038505327 -0.07611254
000380 6d 75 2a be 38 83 dd bd bd a3 05 be 2b 5d 59 bd
       -0.16646357 -0.108160436 -0.13050742 -0.053067368
000390 f9 ec cd 3d f4 4c 00 3d ec 64 8e 3d d5 81 23 be
       0.100549646 0.03132339 0.06952843 -0.15967496
0003a0 8e 96 27 3d c0 4d f1 bd 7b 57 b2 3d 7b 17 f9 3d
       0.040915065 -0.11782408 0.08708092 0.12162682
0003b0 8b 87 36 bd ba 70 15 be 3f 12 0c be cf d8 85 3c
       -0.044562858 -0.14593783 -0.13678835 0.016338734
0003c0 d7 78 e0 bd b5 7e 1d be aa 11 30 3e 49 96 14 3d
       -0.10960548 -0.15380366 0.17194238 0.036276136
0003d0 cd 31 04 be ab 12 e6 3d dc 45 64 bd 96 2b 3e 3d
       -0.12909622 0.112340294 -0.055730686 0.046428286
0003e0 ff 41 0c be 80 43 32 be 15 c5 6e bd c4 d8 1a 3d
       -0.1369705 -0.17408562 -0.05829342 0.03780438
0003f0 a8 a3 e0 3d 83 92 5b bd 5a 15 eb bd c9 b6 53 3e
       0.10968715 -0.05360652 -0.11478682 0.20675196

encoder.2.bias f4 [32]
000000 75 99 ff 3c 88 02 d5 bd 71 f1 42 bc e1 7d ae 3d
       0.031201104 -0.104008734 -0.011898384 0.08520103
000010 50 09 2d be 0c d4 70 bd 12 2a 64 bd f9 37 1f 3e
       -0.16898084 -0.058795974 -0.055704184 0.15548696
000020 9c d7 ef bd 8b 92 fa bd 11 1a 74 3d ed 4e 08 3d
       -0.11711046 -0.12234982 0.05959517 0.033278394
000030 0a 4c dc 3d a4 e4 af bc bf 36 a6 3d 97 5e df 3d
       0.10756691 -0.021471329 0.08115911 0.109067135
000040 72 59 e2 3d ea 37 a2 3d 7c 72 b2 3d 90 67 e0 3d
       0.110522166 0.07920821 0.087132424 0.10957253
000050 75 b6 e8 bd 02 93 0f be fc e9 b6 bc 37 1f 27 3c
       -0.11362926 -0.14020923 -0.02232837 0.010200313
000060 c0 ea e2 3d 15 1e 9a 3d d4 dd 14 be 97 7b 06 3d
       0.11079931 0.07525269 -0.14537746 0.03283271
000070 cc 30 1e 3e c0 13 b3 3a 1c d5 43 3d 70 ab 11 3c
       0.15448302 0.0013662502 0.04781066 0.008890972

decoder.0.weight f4 [48, 32]
000000 c1 da 0a 3e b4 b0 6c 3d 8d 88 7f bd 78 90 47 3d
       0.1356001 0.057785705 -0.062386084 0.04872176
000010 83 49 d5 3d 81 16 81 3d 03 55 0c 3e fe 7c 49 3e
       0.10414412 0.063031204 0.13704304 0.19676587
000020 82 26 c9 3d 87 d8 10 3e ee be 27 be e4 64 03 be
       0.09821798 0.14145099 -0.16381428 -0.12831455
000030 18 fd 51 3d 7f 2f 10 3d f2 28 36 3e cb 62 ae bd
       0.05126676 0.035201546 0.17789057 -0.08514937
000040 13 37 49 bc 2d d7 dd 3d e8 47 fc 3d 81 19 72 3c
       -0.012281197 0.10832057 0.123184025 0.014776588
000050 3a 65 65 be f8 db c7 bc 05 cb c1 3c 1a 8b 39 3e
       -0.22401896 -0.024396881 0.023656378 0.1811947
000060 bf ed 64 3d f8 1d 3e be 53 36 e4 3d 14 c7 e8 3d
       0.055890795 -0.1856612 0.11143174 0.11366096
000070 07 34 08 3e 2d b3 97 3d 86 a7 19 3e 0e d9 fb 3d
       0.13301097 0.07407222 0.15005311 0.12297259
000080 ce cb a7 bd 7a f0 ed 3d 0f f4 b1 bc 55 df 03 3d
       -0.081931695 0.11618133 -0.021722822 0.032195408
000090 f3 d1 4c 3c 8d b3 d3 3b 9a c9 a2 bd dc 04 a3 3d
       0.012501228 0.006460613 -0.07948609 0.07959911
0000a0 39 bd 39 3e bd ae 26 3d 24 ed 2d be bc 8c f2 bd
       0.18138589 0.040693987 -0.16984993 -0.11843249
0000b0 52 cc 7e bc 5e 7c c9 3d d9 39 3f be e6 95 45 ba
       -0.015551643 0.09838174 -0.18674411 -0.000753729
0000c0 9e b6 eb 3d d5 2a 4c 3d 03 62 96 3c 5e bc 11 3e
       0.11509441 0.049845535 0.018357283 0.14232013
0000d0 1e 0d 23 bb eb 8a 83 3d 1c e6 4a bd d5 d2 89 3d
       -0.0024879645 0.06422981 -0.049535856 0.06729666
0000e0 71 51 3f be 4c 55 b8 bb 7c 9e 21 3e 15 3c 0a be
       -0.18683411 -0.0056254026 0.15783113 -0.13499482
0000f0 b4 c1 f9 3c a3 60 d6 bd 03 1a 6f ba 8a 8d 44 bd
       0.030487873 -0.10467651 -0.00091210025 -0.047986545
000100 a0 02 bc 3d 34 3d 33 be 06 20 e0 3d 64 38 18 be
       0.09180188 -0.17503816 0.10943608 -0.14865261
000110 7a 88 28 be f4 67 b2 bc 26 0e 20 3e dc b7 3d 3e
       -0.16458312 -0.021778084 0.15630397 0.18527168
000120 40 ee 18 be ad f5 4e 3e 8d a7 34 3e 39 ed 12 3d
       -0.14934635 0.20210905 0.1764204 0.035870764
000130 3d 82 52 3e 5b 12 90 bd 97 c8 3b 3e 8e ae 94 3c
       0.20557494 -0.07034751 0.18338238 0.01814964
000140 b1 b2 37 3e b5 0f cf bb c6 fa c5 3c 00 09 63 3d
       0.17939259 -0.006319011 0.02416743 0.055428505
000150 4c 9a 97 3d ac f2 88 bb cb d2 c5 3d 06 44 fb 3d
       0.07402477 -0.0041793194 0.09659346 0.12268834
000160 1d 5e 48 3e b0 b2 ec bd 66 fd 54 be f6 12 19 be
       0.19567151 -0.115575194 -0.20799789 -0.1494864
000170 1b 46 86 bc 38 4d 5b 3d ac cd 11 bd 1e 41 66 3e
       -0.01639085 0.05354044 -0.035596535 0.22485778
000180 53 09 aa 3d 89 04 82 3d b2 ef 70 3d 76 99 be 3d
       0.0830256 0.06348521 0.05882234 0.09306614
000190 e5 3c a3 3d 4a b5 17 bc 95 6d 14 3e 56 64 1e 3e
       0.07970599 -0.009259531 0.14494927 0.15467963
0001a0 74 55 2d 3e ae c8 ca bd 99 ea 03 bd 81 f9 35 3e
       0.16927129 -0.09901558 -0.03220615 0.1777096
0001b0 c6 a7 62 bd 2d a5 a3 3d 89 cc 2e 3e 8b b4 86 bd
       -0.055335782 0.07990489 0.17070211 -0.065774046
0001c0 22 46 64 bc a7 b1 cb bd 73 d0 29 be 2e 66 30 bd
       -0.013932737 -0.09945994 -0.16583423 -0.043066196
0001d0 a7 ea 55 bd 57 fe 6a bd 24 1f 8e bd 6f 9f 39 3e
       -0.052225735 -0.057371464 -0.06939533 0.18127225
0001e0 87 2e 3e bd c6 1c 45 3e eb d3 c1 bd 6c c5 5b 3e
       -0.04643109 0.19249257 -0.09464248 0.21462029
0001f0 81 39 2a 3e 1f 13 8f 3d 28 02 61 3e 0d 2c 10 3e
       0.16623498 0.06986069 0.21973479 0.14079304
000200 ae 86 9d bd 70 3b 38 3d 6f f5 64 be 02 82 55 be
       -0.07691704 0.04497856 -0.2235925 -0.20850375
000210 74 26 56 bd a2 63 1a 3e f9 7e 0a 3e 6e ce 17 bd
       -0.052282766 0.1507707 0.13524999 -0.0370621
000220 4e ad 38 3d a1 2c 40 3d 77 e4 1a be 2b 69 fd bd
       0.04508715 0.04691756 -0.15126215 -0.12373575
000230 9d a9 95 bd 70 63 7b bd 11 33 22 bd bb 61 8b bd
       -0.07307742 -0.061374128 -0.039599482 -0.0680575
000240 a3 58 61 bd dd 76 88 bd 19 67 d8 3d 17 84 aa bd
       -0.05501617 -0.06663296 0.10566539 -0.083259754
000250 de 79 48 be 0b 69 59 bb 1b fc c1 bd ce fb a3 3d
       -0.19577739 -0.0033174183 -0.094719134 0.08007012
000260 71 d0 4c 3e d4 74 8a bd 97 43 0c be 0f 2c d5 3d
       0.20001389 -0.067605644 -0.13697658 0.10408794
000270 33 e0 1d be 63 b5 1a 3e c7 3e 0f 3c 66 c9 7c 3d
       -0.15417556 0.15108256 0.008742995 0.061715506
000280 c2 8f a6 bc b4 82 0a be a0 58 c5 3d b5 8d 25 3e
       -0.020332221 -0.13526422 0.096360445 0.16167338
000290 2f 96 86 3d 70 23 f7 3d a1 73 67 bd 95 60 25 be
       0.06571614 0.12067306 -0.056506757 -0.16150124
0002a0 0b 1c 21 be f2 c9 43 3c 65 c1 0b 3e 1e 1e f6 bd
       -0.15733354 0.011950003 0.13647993 -0.12017463
0002b0 1a d3 94 bd 50 44 b0 bc 98 ca 70 3d 63 80 f6 bc
       -0.07266827 -0.021516949 0.05878696 -0.030090516
0002c0 fd 8d 1d be 0b a3 e9 bd eb 8a d2 3d 4c b9 22 3d
       -0.15386195 -0.11408051 0.10280403 0.039727494
0002d0 32 d4 17 3e a8 92 ad bd 9c 72 ce 3c b9 58 c5 bd
       0.1482704 -0.08475238 0.025201134 -0.09636063
0002e0 09 23 15 bc db 67 28 be 14 8d d1 bd 66 db 8c 3d
       -0.009102591 -0.16445868 -0.10231987 0.068777844
0002f0 d5 ac 09 be f9 0a 18 3c 37 8b 8e 3d 45 c5 51 3d
       -0.13444836 0.00927996 0.06960147 0.05121352
000300 d1 53 15 bd 66 90 38 be 14 7b 87 bd 50 44 81 3c
       -0.036456887 -0.18023834 -0.06615272 0.015779644
000310 07 5c 32 be eb 07 ba 3d ad f9 18 3b a5 89 dd 3d
       -0.17417918 0.090835415 0.0023342178 0.10817269
000320 8c b7 b4 bd 80 4f 43 3e 34 06 30 3e 1d 6d 14 bd
       -0.08824071 0.19073296 0.17189866 -0.03623687
000330 2c cb a9 3d 0e f0 ac 3d e4 51 2f be ec a4 21 bc
       0.08290705 0.08444224 -0.17121083 -0.009865981
000340 63 06 09 3e 12 35 13 3e 96 ad 85 3c 74 4c 5f bd
       0.13381343 0.14375713 0.016318124 -0.05451627
000350 94 b5 fb bd 3f 88 f1 3d c1 59 52 be 3a d9 10 be
       -0.12290493 0.11793565 -0.20542051 -0.14145365
000360 36 98 19 3c 89 f8 a3 bd ed 27 2b be 93 7b 17 3e
       0.009374669 -0.08006389 -0.16714449 0.14793234
000370 05 7d a0 3d c9 96 cd bc 1a f8 d5 3d 00 e3 13 bd
       0.078363456 -0.025096314 0.10447712 -0.036105156
000380 76 d4 54 3e 7b bf 45 be b7 4b f4 3d 5e d2 dc 3d
       0.20784172 -0.19311325 0.11928504 0.10782312
000390 ae c2 f3 bd 22 c6 aa bc af 06 75 3d e4 a8 4e 3e
       -0.119023666 -0.02084643 0.059820827 0.20181614
0003a0 04 bc 2a be 6c 4d b4 bd d8 71 b7 3d c4 45 53 3d
       -0.16673285 -0.088038296 0.08957261 0.051580206
0003b0 96 47 a4 bd 86 1b 43 be 03 00 db bd 19 c2 98 3d
       -0.080214664 -0.19053468 -0.106933616 0.07458896
0003c0 b2 d3 08 be bf 23 1c 3d 87 02 af bd 12 1e d5 3d
       -0.13362005 0.038120028 -0.08545404 0.10406126
0003d0 f8 2d 0d be a1 ad f3 bd de 60 44 3d d3 7b 44 3e
       -0.13787067 -0.118983515 0.047943942 0.1918786
0003e0 be 0d 4e 3e 31 e5 54 bd d3 4b 57 3d bc 8f 18 3c
       0.2012243 -0.051976386 0.052562546 0.009311613
0003f0 b3 3f c6 3d 8b 62 97 bd 67 44 05 be ef 12 60 3e
       0.096801184 -0.073918425 -0.13014375 0.21882223

decoder.0.bias f4 [48]
000000 4c 1e 78 3d 40 8c 16 3e 43 6e 9a 3d 1b 4a 39 3e
       0.06057577 0.14701939 0.07540562 0.18094675
000010 81 b9 08 3d 66 ac 6a 3d 55 73 fd 3d fc 2f 66 3d
       0.033380035 0.05729332 0.123755135 0.056198105
000020 0d 88 23 3d 74 d2 c8 3d 8c cd c9 bd b1 83 ae 3d
       0.03992467 0.09805766 -0.09853658 0.08521212
000030 c3 88 d8 3d e6 2d 6e bd 84 8e d3 bd 52 31 d6 bd
       0.1057296 -0.05814924 -0.10329917 -0.10458626
000040 df 69 e0 3b dc d4 2c bd a3 77 10 3d 92 ad f4 3d
       0.0068485583 -0.042195186 0.035270344 0.119471684
000050 8e 9a c9 bd 17 5d dd bd 59 4f af bd 14 35 00 3e
       -0.09843932 -0.10808771 -0.08560056 0.12520248
000060 04 a1 bd bd e2 d5 47 3d 5c b6 bb bd 78 de a5 3d
       -0.09259227 0.04878796 -0.09165642 0.08099073
000070 6a 90 11 be c2 ef 46 3d 35 ce b6 bc 2c bf 25 be
       -0.14215246 0.048568495 -0.022315124 -0.16186208
000080 01 c3 1d be 34 b9 1e 3b d1 dd b4 3c f8 16 f8 bd
       -0.1540642 0.0024219276 0.022078427 -0.12113756
000090 16 6f da bd ef 64 05 bb 58 4e 0d be 82 b3 f2 bd
       -0.10665719 -0.002035435 -0.13799417 -0.11850645
0000a0 c0 35 19 3e d0 f5 b4 3c 64 c5 06 3e cc c1 b0 bd
       0.1496191 0.022089869 0.13161236 -0.08630714
0000b0 5b 19 35 3e ca d3 2f ba 25 c1 0e be 6d 13 4b 3e
       0.17685454 -0.0006707279 -0.13940866 0.19831629

decoder.2.weight f4 [100, 48]
000000 7f 3e b6 3c 79 ac 24 3e e6 a6 1c 3e e7 38 54 bd
       0.022246597 0.16081418 0.15298042 -0.05181208
000010 25 d2 75 3d 22 02 86 bb 0b 1b 1a 3d 84 02 b9 3d
       0.060014863 -0.0040896097 0.037623446 0.09033683
000020 48 8c 39 3d 6a c3 7c 3d 06 0d e7 3d 74 c5 5c 3d
       0.0452998 0.0617098 0.11281781 0.053899243
000030 df 8c cf 3d 74 0c 0c be 5b 32 31 3d db b8 90 bd
       0.10134291 -0.13676625 0.043260913 -0.070665084
000040 72 3b 19 3e dd 1e fb bd a9 30 c8 bd fc 77 54 3e
       0.14964083 -0.12261746 -0.09774906 0.20748895
000050 41 33 c8 3a f9 a0 3d be 2a 37 15 bd 7f c9 b1 bd
       0.0015274064 -0.18518437 -0.03642956 -0.086810105
000060 f4 4e 08 3e ae 0d 00 be 56 a1 fe 3c 58 5f c3 bb
       0.13311368 -0.12505218 0.03108279 -0.0059622936
000070 8e c0 13 be 6a 96 6b bd cc a6 0f be f7 50 17 bc
       -0.14428923 -0.057516493 -0.14028472 -0.009235612
000080 8c e4 e5 bd 75 29 08 3e 6d 52 75 3d 39 dd af 3c
       -0.112252325 0.13297065 0.05989306 0.021467792
000090 fc b8 0d be 82 31 ae bd e8 f3 90 3d 3c aa d7 bc
       -0.13840097 -0.085055366 0.070777714 -0.026326291
0000a0 62 b5 e7 3d d1 c5 d1 bd 36 e8 81 3c 64 e0 51 bd
       0.11313893 -0.102428086 0.015857797 -0.051239386
0000b0 92 7b 07 3e 38 ac 1f 3c 90 b0 7b bc 76 92 e1 bc
       0.13230732 0.00974565 -0.01536192 -0.027535658
0000c0 b4 78 c3 3d 6e cd 19 3c 4e f7 88 3d ff c5 23 bc
       0.09544507 0.009387357 0.066877946 -0.009995936
0000d0 9d 0c e6 bd e9 d2 b2 bd 94 67 b8 bd 52 66 c2 bd
       -0.112328745 -0.08731634 -0.09004131 -0.09492172
0000e0 bc d1 3b 3e 4c 74 01 3e c2 4b 07 3e 11 e6 18 bd
       0.18341726 0.1264202 0.13212493 -0.037328783
0000f0 28 50 0e ba fd d6 46 3e fc c4 3d 3d 33 6c 8e bd
       -0.00054288143 0.19417949 0.046330437 -0.06954231
000100 f7 39 dc 3a 67 78 86 3d 19 e4 be 3d 80 d8 b1 3c
       0.0016801943 0.06565934 0.0932085 0.02170968
000110 5f 7f 97 3c 48 ea 1f 3e 79 c5 04 3e 89 b1 64 3c
       0.018493352 0.15616715 0.12965955 0.013958343
000120 72 e9 e0 3c 85 93 57 3c ee 2e 5f 3c 65 33 f2 3d
       0.027455065 0.01315773 0.013622029 0.11826209
000130 d4 6f 52 3c a5 2c dd 3d 90 78 77 bd f6 66 86 3d
       0.012844045 0.10799531 -0.06041771 0.06562607
000140 02 4d c5 3d b3 63 71 3c 78 b6 08 bd d0 3a 27 be
       0.09633829 0.014733243 -0.03337714 -0.16331029
000150 f8 30 00 be 1b 52 38 3e 12 d8 19 3d de f6 10 3e
       -0.1251868 0.18000071 0.037559576 0.14156672
000160 2e 88 db 3d 74 e5 32 bd 57 c0 06 3d 6e b3 fc bd
       0.107193336 -0.043675855 0.032898273 -0.12338911
000170 6a be ad bc 3d d1 07 be 6a c3 a0 3d 9a a3 af 3d
       -0.02120896 -0.13263412 0.07849772 0.085761264
000180 58 4f fc bd a6 84 ab 3c 6f b4 ea 3c 55 7f f3 3d
       -0.12319821 0.020937275 0.02865049 0.11889521
000190 e2 ce 72 3c d5 02 3b 3c 7e 03 9e 3d 80 16 c4 bd
       0.0148198325 0.011414249 0.0771551 -0.09574604
0001a0 58 15 88 3d 9f 96 ee bd c1 0f 31 be b4 1e 81 3a
       0.06644696 -0.116498224 -0.17291166 0.0009851069
0001b0 b9 7c a6 3d b5 7b 01 3c a4 a7 86 3d e9 fe 4b 3d
       0.08129258 0.007903029 0.06574944 0.04980365
0001c0 32 cb 18 3c 6b 6b eb 3d e8 04 28 3d d3 84 69 3d
       0.009325789 0.11495098 0.041020304 0.057011437
0001d0 79 cd ac bd 4d d7 6e bd 31 d3 2c 3d 0a d4 96 3c
       -0.08437628 -0.058310796 0.042193595 0.018411655
0001e0 f4 be fc bd 44 4b bd bd 39 67 a5 3d 7e b6 81 bd
       -0.12341109 -0.092428714 0.08076329 -0.06333636
0001f0 fe bc 16 3e 90 30 1b 3d a2 30 51 bc 9e 9b 80 bd
       0.14720532 0.03788811 -0.012767943 -0.062796816
000200 e4 1b e6 3b 8e 64 09 3d 1c 6f 1c be f9 65 d1 bd
       0.007022368 0.033543162 -0.1527676 -0.10224528
000210 85 c3 f8 3d b5 e9 ab 3d 37 dd 76 bd f4 aa d0 bd
       0.121466674 0.083941855 -0.06026956 -0.10188857
000220 9e 63 14 be 74 e0 6f 3d 10 44 5c 3d 86 2f 60 bc
       -0.14491126 0.058563665 0.053775847 -0.0136832055
000230 13 88 26 be fe c2 24 3e 3c d2 f8 3d 47 ab fd bd
       -0.16262846 0.16090009 0.12149474 -0.12386184
000240 0d 2f 03 3e 35 54 db 3d b3 ad d7 3d cd ee 48 3e
       0.12810917 0.107094206 0.10531177 0.19622345
000250 33 a9 e7 3c 84 26 ed bd 60 90 79 bd 3a 61 b1 3c
       0.028278923 -0.11579612 -0.060928702 0.021652807
000260 00 ae 00 3d cf 84 e1 bd da 7b b7 3d 6d a5 fc 3c
       0.03141594 -0.11011659 0.0895917 0.0308406
000270 21 a8 ff 3c 41 f5 0c be f0 ae 23 bc 76 f4 3a 3d
       0.0312081 -0.13765432 -0.009990439 0.045643292
000280 ee 2a 42 bd 34 d0 2a 3c b7 ae 1d bc fc a3 f4 3b
       -0.047404222 0.010425616 -0.009624175 0.0074658375
000290 b1 3e 21 be f6 39 1b bc b8 44 06 3d 34 20 9f 3d
       -0.15746571 -0.009474268 0.03278038 0.07769814
0002a0 e5 d4 07 3e 98 1e c5 bd 26 1f 09 be 68 e4 a5 3d
       0.13264807 -0.09624976 -0.13390788 0.08100206
0002b0 e0 e3 5c bd 70 1e e1 bd 29 d6 41 3e 04 7b 04 3e
       -0.053928256 -0.109921336 0.18929352 0.12937552
0002c0 a2 11 15 3d 29 4a 8a 3d 5c 7d f8 bd 70 36 96 3d
       0.03639377 0.06752426 -0.121332854 0.07334602
0002d0 2f 90 29 bd bf 37 b9 bd d6 1b 3a 3b 52 15 de bd
       -0.04139727 -0.09043836 0.002839794 -0.1084391
0002e0 fa 99 52 3d 65 75 85 bd 9e 02 24 be 6b 77 f3 3d
       0.051416375 -0.06516532 -0.16016623 0.118880115
0002f0 68 55 f9 bd e1 1e 12 bd 6e 89 99 bd 6b 8e d1 3c
       -0.12174493 -0.03567398 -0.07496916 0.025580605
000300 3c ea 56 bd 40 fb b1 3d f3 b7 2b 3e 9a a4 c3 3d
       -0.052469477 0.086905 0.1676939 0.0955288
000310 46 02 75 bb 4a 7d 98 bc 6b 52 d5 bd b9 77 9b bd
       -0.0037385388 -0.01861443 -0.104161106 -0.07591195
000320 ff d6 a0 3d 1b e6 6d bc c8 c4 16 3d e3 fc 17 3e
       0.07853507 -0.014520193 0.03680876 0.14842562
000330 fb 1e 63 bd 74 ca 87 bc 3c f1 13 bd 60 3f f5 3d
       -0.055449467 -0.01657603 -0.03611873 0.119749784
000340 95 bc a4 3d 56 c6 ef bd d5 fc 11 be a4 df 28 bc
       0.08043782 -0.117077515 -0.14256604 -0.010307226
000350 0b ee 8c bc 02 97 dd 3d 98 4e 2e bc 38 ad e9 3d
       -0.017203351 0.10819818 -0.010638855 0.11409992
000360 5e fe cd 3d ac c7 27 bd 92 00 8b bd 96 d4 a8 3c
       0.10058282 -0.040961906 -0.06787218 0.020609181
000370 18 78 39 bd b1 0d 05 3d 54 89 5e bd 89 8a e0 bd
       -0.045280546 0.03248376 -0.054330185 -0.109639235
000380 40 04 47 be fa 61 01 bc 44 63 35 3c 61 fe 78 bd
       -0.19435215 -0.007896895 0.01107103 -0.06078947
000390 27 b2 d8 bc 8d df 4d 3e 2e 7d 8e 3b fe 43 3b bd
       -0.026452137 0.20104809 0.0043484187 -0.04571914
0003a0 11 9c 95 3d 04 be fd bd cf c1 44 3d 49 78 30 bd
       0.07305158 -0.12389758 0.048036393 -0.043083463
0003b0 ec 61 35 3c eb df 58 bd ce 7c 69 bd 7c 46 f4 3a
       0.01107071 -0.05294792 -0.05700379 0.0018636729
0003c0 27 d3 fd bd 60 4b 04 be 0e 14 4a bd 43 08 c8 bc
       -0.1239379 -0.12919378 -0.049335532 -0.024418002
0003d0 a2 b4 65 3d bf 1e c6 3d 0a 02 dc bd bd dc d0 3d
       0.056080468 0.09673833 -0.107425764 0.101983525
0003e0 08 51 43 3c ef 23 8f 3d 4d 81 29 3c d5 65 cf 3d
       0.011921175 0.06989276 0.010345769 0.10126845
0003f0 ee 2d 1f bd fd e7 50 bd 3d da 1f be 9a 7d ad 3d
       -0.03886216 -0.05100249 -0.15610595 0.08471222

decoder.2.bias f4 [100]
000000 41 3c a2 3d 82 4c d7 bd 3b 5d 11 3d 42 ea 5f bc
       0.07921649 -0.105126396 0.035489302 -0.013666691
000010 7d 37 d4 bc 25 bb cf 3d fc a9 a3 3c 9e 6c 33 3d
       -0.025905365 0.10143117 0.019978516 0.043804757
000020 4c 63 87 bd 31 ba 74 3d 2a d7 4f 3d 09 0d e5 bc
       -0.06610736 0.05974788 0.050742306 -0.027960317
000030 22 52 9b bd ec 95 93 3c 63 9d d8 3d 8b 94 ca bd
       -0.07584025 0.018015824 0.10576894 -0.098916136
000040 4a 9b eb 3d ac 84 60 bd 6b d9 0d 3d f2 20 84 3d
       0.115042284 -0.054814026 0.034631174 0.06451596
000050 30 25 65 3d 98 aa 0e 3d 8e 9a ab bd 62 87 32 3c
       0.055943668 0.03483066 -0.08379088 0.010896536
000060 62 ed 9e bd 66 05 b2 bd c0 4e 63 3d 86 df d0 3d
       -0.07760121 -0.08692436 0.055495024 0.10198884
000070 6f e0 b8 3d 96 fa ef 3d d5 da 3d 3e bf 84 37 3b
       0.09027182 0.11717717 0.18540509 0.0028002707
000080 3e 63 e4 3d 7d ed 86 3d 4f ab d5 3d 97 cb b0 bd
       0.111517414 0.06588266 0.10433065 -0.08632582
000090 f1 23 8c 3d 99 a5 ec 3b 50 18 de bd 27 03 5a bd
       0.06842793 0.007221889 -0.10844481 -0.053225663
0000a0 e2 f0 f7 bc a6 37 9c 3d 7e b4 3a bc d6 dd 93 3c
       -0.030266229 0.076278016 -0.011395572 0.018050116
0000b0 b8 43 0b 3e 7d 87 19 3e 84 08 4b bd e0 a5 b9 3d
       0.13600051 0.14993091 -0.049568668 0.09064841
0000c0 cb 0a 6d bd c5 c7 0b 3e 0b e9 e2 bd 0b ed 5d 3d
       -0.05787162 0.13650425 -0.11079606 0.05418114
0000d0 41 af 06 bd ec e4 6e bd a7 64 7f bd 81 ec 35 bd
       -0.03288198 -0.058323786 -0.06235185 -0.044415
0000e0 7c 1b 72 bd 8a 41 03 bc 3f ec 4a bd a9 1c 7e bd
       -0.059108242 -0.008011231 -0.049541708 -0.06203905
0000f0 72 9f 2a bd d4 81 93 3d 90 c0 d3 3a 09 92 c7 3c
       -0.041655965 0.07202497 0.001615541 0.024361627
000100 80 01 8a 3d da 75 84 3d 48 39 de 3d 08 be 29 ba
       0.06738567 0.06467791 0.10850769 -0.0006475155
000110 6c a4 d0 bd d9 f4 7d bd 2f f3 bc bd d2 f0 e4 bd
       -0.10187611 -0.062001083 -0.09226071 -0.11178745
000120 42 4a d9 3d a6 3d 1c bc 18 32 2c 3d bc 38 b1 3d
       0.10609867 -0.0095361825 0.04203996 0.08653399
000130 ed 67 24 3d e8 81 cb 3c ff cc f7 bc 33 5f b9 bd
       0.040138174 0.024842218 -0.030249117 -0.09051361
000140 b8 f5 09 3e 7f f5 86 3d bf a6 17 3d 22 3b af 3d
       0.1347264 0.065897934 0.037024256 0.085562006
000150 76 59 ff 3d 75 72 4d bd c4 3b 3f bb 26 83 86 bd
       0.12468235 -0.050157983 -0.002917991 -0.06567983
000160 a7 0c 9c 3d 59 3f e2 bd 67 6d 20 bd 6b e9 d8 bc
       0.07619601 -0.11047239 -0.039166834 -0.02647849
000170 40 61 04 3e eb 8c 00 bd 6a d7 91 3c 1e 53 2f bd
       0.12927723 -0.03138439 0.017802913 -0.042803876
000180 f8 10 c2 bd fc 6f c1 3d 9b 9a 4a 3b 4b 67 5c bd
       -0.09475893 0.094451874 0.0030914906 -0.053809445
