ML/embedder_model.pt (torch, 41391 bytes, 8 tensors)

encoder.0.weight f4 [48, 64]
00000000: 1489 64bd c753 043e 567e 3f3d 3055 d03d
00000010: 16ec 25bd ce1d 63bd 6632 c93b 930a 1cbd
00000020: f5ab eabd 4c5d 89bd f653 7bbd fb77 ef3c
00000030: 91b0 07bc 212a 5b3c 002b 05bd 9726 e2bc
00000040: 261d bf3d 1d09 093e 2585 173d 39d4 12be
00000050: e3a7 68bd 7b3e 93bd 22cb 15be 67e6 8fbd
00000060: dcad bb3d b9fe c2bc 0dea 1dbc cee9 5ebd
00000070: 1199 cdbc 1040 97bd 57d3 d63c 2dda 66bc
00000080: 535f 2fbd 7c28 92bd d6c9 8abd af72 053e
00000090: dc21 063d 7290 1b3e bbdc 653d 15f4 823d
000000a0: 46f2 fcbd ac22 c53d 63ad eb3c f90e 0a3e
000000b0: 5bc1 aa3d 1e2f 403d 2cca d13d da03 19bd
000000c0: 8e98 f93d bed2 09bc b8af 4abd e855 24bd
000000d0: 7c2b ea3d 9df7 7fbd e4f4 91bd 750f 243e
000000e0: d006 f33d 2d20 98bd a61c 92bd 7709 c83d
000000f0: 7807 d23d a331 91bd 8071 82bc 903b 133e
00000100: 5c2e 2d3d 17ba cbbd 27ae b7bd 8045 1dbe
00000110: 2539 493d 54ae 733c 4f6c 583d 091f 193e
00000120: 2199 cabc 5cf5 2bbd 40d3 90bd 1f03 553b
00000130: 307f 363e 887b 4b3e 0523 023e 315c 383e
00000140: a64c 9abc f447 91bd 8c96 853d d6bb 07be
00000150: c158 eebd 57f3 52bc 0603 583e bc9c aebd
00000160: b74e 69bd 1ce5 433e b83a 2b3e 9f79 7f3d
00000170: 32c4 2a3e b858 153e f832 9f3c efcc 0b3b
00000180: f939 523e adb0 eb3b f8bc 733d b9d1 143d
00000190: 83f5 87bb f35e 9c3d 9dcc fd3c fb85 3ebd
000001a0: 5514 a63d 7bfd b8bc 7514 a1bc a783 a8bd
000001b0: 7642 3a3e 66c4 e13d 2d1c 8f3c 4f16 27bd
000001c0: 6ab7 ac3d a8a7 cc3d 83c0 aebb 44ff c83b
000001d0: 48a2 3d3e 019d fbbd 41c8 bcbd 988f 893d
000001e0: 805d 0d3e e90a b3bd efe6 183e 30f1 ad3c
000001f0: 5fc5 613e 3e2d 6f3d 6fd3 673d eb2a ab3d
00000200: 93d7 e93d aab2 c63d 2d7f f8bd c2bd 1f3d
00000210: 19a2 f43d c893 0a3c 6ab3 083e 19b9 0b3e
00000220: 9013 94bc 52e9 d73d 1efe 393d a021 2a3c
00000230: 69f5 c93b 2a42 eabc 4dfa 663d 562a d6bd
00000240: 781d 1d3e 88d9 d5bd 31f9 023e 51fc c43d
00000250: a8ce 0a3e a4cf 3c3d 96d5 933b 8bcd 993d
00000260: e7e2 12be 4671 c7bd 9230 9abd cfe0 913c
00000270: 812c 6cbd f173 b63d 67c1 cb3c b910 aa3d
00000280: 4827 003d 8c02 1cbd 0329 063c 0f69 46bd
00000290: 635f de3d 03c1 97bd 2867 6ebd e00a 4fbd
000002a0: 146a 2e3e 9966 b6bd c369 abbd 74da 103e
000002b0: 84cd 133e 1b1a b5bd 6a67 5cbd cee2 d33d
000002c0: 15ef c73d 6fa6 863d 0b38 c73d eb86 203e
000002d0: 8339 3e3c 453c a0bd 7daf 81bd d891 013e
000002e0: 5c8e 953c a81e 043e c165 fb3d 76e5 133e
000002f0: 1736 bf3d 9c6e b13d fe4a 693d 3d8d 843c
00000300: 0575 ba3d 3df9 9c3d 07ef b43d 588c ae3b
00000310: a233 78bd f3f5 a53d e137 81bd e1a4 07be
00000320: e6d9 953b a33e 7d3c 81cc a5bd b8da d8bc
00000330: a1b7 5c3d f9e5 c23d bf40 a3bc 9ca2 aabd
00000340: 2171 0c3e 0650 1ebd e42f bcbd 7669 513d
00000350: 271d 963d f5cf 053e 2063 6f3a dfdc 0a3e
00000360: 6a01 e53c 5ef1 86bb d0c1 a4bd 8d3f 22bd
00000370: 8078 1e3d c381 a8bd b27f 2f3d a756 353d
00000380: 92d8 4cbd 4300 9cbd 9962 69bd 30a1 113e
00000390: ad12 b4bd da21 753d 6758 95bd a65f 94bd
000003a0: c4d2 b2bb befb 843d b0a2 553d 4b38 2c3e
000003b0: 073a fe3d 9294 08be 3f41 bd3d 0674 36bc
000003c0: 5408 903d 1765 303d ee2f da3d 3e0b 6a3b
000003d0: 737f 0a3e f051 9f3d 4b97 393d 6916 223d
000003e0: 5efa 98bd b733 973d 275b fb3c 1589 cdbd
000003f0: 6a24 ed3d a426 1abd 6476 b93d fb43 1b3e
-0.05579479 0.12922584 0.046751343 0.10172498 -0.040508352 -0.055448346 0.006140041 -0.03809602
-0.114585795 -0.06707248 -0.06135937 0.029232016 -0.008281843 0.0133767435 -0.03251171 -0.027606292
0.093317315 0.13382383 0.03699221 -0.14338769 -0.056800734 -0.071896516 -0.1462827 -0.07026368
0.091640204 -0.023803102 -0.009638322 -0.054422192 -0.025097402 -0.07385266 0.026223822 -0.014090103
-0.042815518 -0.07136628 -0.067767784 0.1303203 0.032747135 0.1519182 0.056118708 0.06394211
-0.123508975 0.09625754 0.0287692 0.13482274 0.08337661 0.046919934 0.10243639 -0.03735719
0.121873006 -0.008412061 -0.049483985 -0.04012099 0.11434075 -0.062492 -0.07126787 0.16021521
0.11866534 -0.07428012 -0.071343705 0.0976743 0.10255331 -0.070895456 -0.015923262 0.1437819
0.04228054 -0.09947603 -0.08968764 -0.15358543 0.049126763 0.014873106 0.052837666 0.14953245
-0.02473122 -0.04198204 -0.07071543 0.003250308 0.17821956 0.19871342 0.12708671 0.18003918
-0.018835377 -0.07093802 0.06522855 -0.13255247 -0.11638022 -0.0128754 0.21094903 -0.085259885
-0.056959834 0.19130367 0.16721618 0.062371846 0.16676405 0.14584625 0.019433483 0.0021331867
0.20529927 0.0071926923 0.059506387 0.03633282 -0.0041491403 0.076352976 0.030981356 -0.046514492
0.08109347 -0.022581806 -0.019663075 -0.08228236 0.18189415 0.11023788 0.01746949 -0.04079276
0.08433421 0.099929154 -0.005333008 0.0061339457 0.18518937 -0.122858055 -0.09217883 0.067168415
0.13805199 -0.08742315 0.14931844 0.021233171 0.22047947 0.058392756 0.056598123 0.08357795
0.11418071 0.09702046 -0.12133632 0.038999327 0.1194498 0.008458085 0.13349691 0.13644828
-0.018075734 0.10542549 0.04540836 0.010383993 0.0061632884 -0.028596003 0.05639105 -0.10457294
0.15343273 -0.104418814 0.12790371 0.09618438 0.13555396 0.04609646 0.0045115454 0.07509907
-0.14344369 -0.09738402 -0.07528795 0.017807392 -0.05765963 0.08908833 0.024872495 0.08303971
0.03128746 -0.038088366 0.008188489 -0.048440035 0.10858037 -0.07409861 -0.058203846 -0.05054748
0.17032653 -0.08906288 -0.08369782 0.14145833 0.14433867 -0.0884287 -0.05380956 0.10345994
0.09762398 0.065747134 0.09727486 0.15676467 0.011610392 -0.078239955 -0.063323 0.12653291
0.018256359 0.1290232 0.122752674 0.14443001 0.09336489 0.08663675 0.056956284 0.016180629
0.09104351 0.07664726 0.08834653 0.005326789 -0.060596116 0.08103552 -0.06309486 -0.1324649
0.0045730947 0.015456828 -0.08095647 -0.02647148 0.05388606 0.0951652 -0.019928334 -0.083317965
0.1371503 -0.038650535 -0.09188822 0.051125966 0.07329779 0.1306761 0.0009131897 0.13560818
0.027954776 -0.0041181287 -0.08044779 -0.039611388 0.038689137 -0.08227875 0.04284639 0.04427209
-0.050011225 -0.076172374 -0.056978796 0.14221644 -0.087926246 0.059846736 -0.07292252 -0.07244806
-0.005457254 0.064933285 0.052157104 0.16818349 0.124134116 -0.13337925 0.0924096 -0.011136061
0.070328385 0.043065157 0.10653673 0.0035712267 0.1352518 0.077793 0.0453103 0.039572153
-0.07469629 0.07382911 0.030683113 -0.10035912 0.11579211 -0.037634507 0.09055784 0.15162651

encoder.0.bias f4 [48]
00000000: 1a26 ea3d e141 223e b0cc fe3c 3155 70bd
00000010: 88be c13d dd36 11be e1ec 96bc 2b1f 023e
00000020: f520 cb3d f88e 44bd 5f15 bd3d 3e32 f43c
00000030: 2390 cf3d 5d6b 2b3e c2e6 003e b222 a1bd
00000040: 2843 b73d abb2 b83d 72ff 743d de07 fabc
00000050: abd1 833c 925c c63d 927b 23bc c33a 71bd
00000060: ef05 89bc 4c11 1f3e 4fba 0f3e 901b 2fbd
00000070: c325 803d e6a7 75bd c6fd 64bd 3e76 c4bd
00000080: fe4a 0b3e d67f c7bc 9a5a e43d cae1 a63d
00000090: 5506 9a3d 62e0 923a e6c1 eabc 7c06 293d
000000a0: 3c58 e73c d2a8 99bc c278 30bc 2a0f f83d
000000b0: 90a7 053e f4ab 913d 91c0 f2bc 1fb4 b1ba
0.114330485 0.15845443 0.031103462 -0.058674995 0.09460169 -0.14181085 -0.0184235 0.12707202
0.099183954 -0.047987908 0.09232592 0.029809114 0.10134914 0.16740175 0.12588027 -0.07867946
0.08948356 0.09018453 0.059813924 -0.03052133 0.016091188 0.09685625 -0.009978192 -0.05889393
-0.016726462 0.15533942 0.14035915 -0.042750895 0.062572025 -0.059974574 -0.05590608 -0.095928654
0.13602826 -0.02435295 0.111500934 0.081485346 0.07520739 0.0011205787 -0.028656911 0.04126595
0.028240316 -0.018757258 -0.010770978 0.12112267 0.13052201 0.071128756 -0.029632838 -0.0013557709

encoder.2.weight f4 [32, 48]
00000000: 1c00 1b3e 1cc1 a0bc 1335 07be f27f dabc
00000010: b35a 703d 33ec c2bd 6ab7 303e 9470 ddbd
00000020: 8a41 0f3d f11d b53d 1a14 8e3d a40f 28bd
00000030: d641 e63c 728b 323d f496 5bbd 79cb 323e
00000040: 3d13 de3d fabc bcbc 141a a2bb e9af c9bc
00000050: 0581 e5bd 8987 2cbe 8cad 463d e941 a73d
00000060: 7134 4d3c 6ac1 0ebe 2c52 9b3d 6187 c0bd
00000070: e534 553e 17b8 293d 5a0b 5a3e c14f 09bd
00000080: cabb e33d 4e28 1a3e 0b13 91bd 792a 0c3e
00000090: d46f f73d aac4 ab3d e184 793d fa97 cebd
000000a0: 21fa dcbd 95d0 3d3d 50a6 e13d 8d85 2d3e
000000b0: a930 503d 4900 13be b90a e73c bc6a f3bd
000000c0: e252 83bc df0a 3cbc 750c b7bd 81a1 00be
000000d0: 1a34 5abd 5856 c33d 385f a83c e05a 1cbd
000000e0: 7b88 22be a27d 21be 30e2 ff3c 7d5b 83bb
000000f0: a258 c33d d252 0c3e 7b1f f33d 1651 2dbe
00000100: 14df 35bc 7109 fabd 1538 953d 8f56 dd3d
00000110: b62e f23d a3bf cf3d 6225 29be 99dc efbd
00000120: c394 eb3d b970 163e 2303 11be 997c 02bd
00000130: 5f15 b9bd f049 823d f49e bb3b fa6a 583d
00000140: 4e02 ca39 9982 023d 7484 013d 70fc 31be
00000150: 186f b53d 3978 40bd 2776 18be d4cc de3d
00000160: 4c97 9fbd 8f33 1abe d496 0ebe b1c4 57bd
00000170: 82a7 b9bd e51c 343e 7252 d8bd e5d4 7c3d
00000180: 02a8 9b3d 19d8 c23d b239 0cbe 4ada bd3c
00000190: 20a4 cfbd 4cc4 0abd acae 9039 ec25 803d
000001a0: 6e36 343e aec1 01be 10a0 58bd 234b a83d
000001b0: d977 92bd aa12 433e 0a35 6e3e e26c 37be
000001c0: c13b 84bd 95cf 63be 26ac 4c3e c8bf 2a3e
000001d0: 9fda f1bd 3087 5f3e 8589 ae3d c266 df3c
000001e0: 6432 1f3e 84d3 dc3d 91f4 07be cba7 883c
000001f0: 543f 27bd 57e3 4b3c b59d ff3d 3b7d 403e
00000200: 4c1b b63a a8e5 d6bc dc4e 3cbd ab6c e93c
00000210: 6660 d83a 4439 93bd e956 693e cb21 cabd
00000220: 5575 6f3d 84ae 9dbb a390 15be 2574 f43c
00000230: c77c a6bd a1e5 4f3d fb63 a43d a47f 853c
00000240: 67b1 3c3c 98ff 573e b898 01be f82e 573d
00000250: d025 083e 11e8 25bd ee8d d93b 64b0 5abd
00000260: 0761 3abb 5338 afbb abaa 11bb 58d2 5cbd
00000270: 0b09 d5bc 1531 f9bc ecfb cebd 6e1b 08be
00000280: 7c2a eabd 8c5b 28be 10a5 d93d ccbf f8bd
00000290: 3126 5abd a9fc a93d d7e1 e6bc 26eb 63bc
000002a0: 2552 003e 587b cc3d b5b6 c23d aa64 453e
000002b0: 8480 32bd 5907 01bd e0a6 473e 9576 33bc
000002c0: 28ec 203e c52a 3f3d 17d9 ce3d c3ab c6bd
000002d0: 76d2 c4bd 6b37 ddbd a1ee 213d dcfb a33d
000002e0: bc6e a4bb 2156 15bd b77d d2bc 157e 7d3c
000002f0: 60ed 323a 1d72 b8bc 7f4f 40bd 8b87 193e
00000300: 1467 cdbd 1cc4 c73d c3bc 0dbd ec26 3abe
00000310: d811 a63d 9d0a 73bd 84d4 bf3d 1eef 3c3d
00000320: 37f5 1bbe 4b1e 0bbe 18a4 433d 1785 04be
00000330: 2b2b e03c 466c bfbd 62d2 c4bd 54e1 b93d
00000340: fe84 c03c 6e3d 1bbe 35aa 633d 4352 ee3d
00000350: 31c5 fe3d be72 99bd 326a 58bd fab1 563c
00000360: f810 353c b9e2 0e3e 10c8 1abe 9a30 52bc
00000370: 4e98 02bd a907 87bc eb80 94bc 7ab6 c8bd
00000380: b6bb 77bd 1605 b5bd 13bc d3bd 3179 c43d
00000390: 54a7 8fbb ddf3 c8bd 59a3 8bbd 74a9 ffbd
000003a0: f5e9 223e 36df 31be 5786 85bd 1c83 bcbd
000003b0: 583a 353c 2708 44be 4219 7abd 75ba 02be
000003c0: a293 5cbe ca30 363d 339a d1bd b2f2 01be
000003d0: bd9d 5dbd e0e5 d6bd 5dcf a4bd 1167 eebd
000003e0: 0b89 0b3e e299 1cbd 6735 3b3e 5009 123e
000003f0: 5efe 29bd 2dce 213e 32e6 f33d 9fea 7bbc
0.1513676 -0.019623332 -0.1320384 -0.026672337 0.058680248 -0.09517708 0.17257467 -0.10812488
0.034974612 0.088436015 0.06937428 -0.04103054 0.028107565 0.043590017 -0.053610757 0.17460431
0.10843513 -0.02303933 -0.0049469564 -0.024620013 -0.11206249 -0.16848578 0.04850535 0.08166868
0.01252471 -0.13940969 0.075840324 -0.094008215 0.20820959 0.041435327 0.21293393 -0.033523325
0.11119802 0.15054438 -0.0708371 0.13688077 0.120818764 0.0838712 0.06091774 -0.10087581
-0.10789896 0.046341497 0.1101805 0.16945477 0.050827656 -0.14355578 0.028203355 -0.11885592
-0.016030733 -0.011477201 -0.08937923 -0.12561609 -0.053272344 0.09537953 0.020553216 -0.038172603
-0.15872376 -0.15770581 0.031235784 -0.004008709 0.0953839 0.13703468 0.11871239 -0.16925463
-0.011100549 -0.12208832 0.072860874 0.10807525 0.11825316 0.10143974 -0.16518167 -0.117119975
0.115029834 0.14691438 -0.14161353 -0.031857107 -0.09037279 0.06361759 0.005725736 0.052836396
0.0003853016 0.03186283 0.031620458 -0.17381454 0.0885908 -0.046989653 -0.14888822 0.108789116
-0.077925295 -0.1505873 -0.13924724 -0.052677814 -0.09065153 0.17589147 -0.105626 0.06172647
0.07600404 0.095138736 -0.13693884 0.023175377 -0.10138726 -0.03387861 0.0002759596 0.06257233
0.17598888 -0.12671539 -0.052887022 0.08217456 -0.071517654 0.19050089 0.2326242 -0.17912629
-0.0645671 -0.22247155 0.19987544 0.16674721 -0.11809277 0.21828914 0.085223235 0.027270678
0.15546566 0.10782531 -0.13276888 0.016681572 -0.04083188 0.012444339 0.12481252 0.18797772
0.0013893633 -0.026232556 -0.045973644 0.0284942 0.0016508221 -0.07188657 0.2278706 -0.09869727
0.058461506 -0.0048120636 -0.14605956 0.029840538 -0.08129268 0.0507561 0.08026882 0.016296215
0.011516905 0.21093595 -0.12655914 0.052535027 0.13295674 -0.04050452 0.006639234 -0.053390875
-0.002843918 -0.0053472905 -0.002222697 -0.053911537 -0.026005289 -0.030418912 -0.10106644 -0.13291714
-0.114338845 -0.16441172 0.10627186 -0.12145957 -0.05325908 0.08300144 -0.02818386 -0.013911044
0.12531336 0.099844635 0.09507505 0.19276682 -0.043579593 -0.031501148 0.19497252 -0.010953565
0.15715086 0.046671648 0.101 -0.0970073 -0.09610455 -0.10801586 0.039534215 0.08007023
-0.0050180834 -0.036459092 -0.025694711 0.015471955 0.0006825533 -0.022515351 -0.046950813 0.14993112
-0.10029426 0.09754202 -0.034603845 -0.1817891 0.08108872 -0.059336293 0.09366706 0.046126477
-0.15230261 -0.13585775 0.047763914 -0.12941395 0.027364334 -0.093468234 -0.0961044 0.09076181
0.023500916 -0.15160152 0.055582244 0.11636784 0.12439955 -0.074925885 -0.05283565 0.013103956
0.011051409 0.13953675 -0.1511538 -0.01282897 -0.03188353 -0.016483145 -0.01812788 -0.0980043
-0.06048175 -0.08838861 -0.10338607 0.09593428 -0.0043839607 -0.09812138 -0.068182655 -0.124834925
0.1590956 -0.17370304 -0.06519764 -0.09204695 0.0110612735 -0.19143735 -0.061059244 -0.1276644
-0.21540692 0.044480123 -0.10234489 -0.12690237 -0.05410551 -0.10493064 -0.08047364 -0.11640752
0.13626496 -0.03823269 0.1828209 0.14261365 -0.04150235 0.15801306 0.11909141 -0.015375762

encoder.2.bias f4 [32]
00000000: 4be2 e0bd 5400 56bd afad 77bd e5c8 c63c
00000010: 75b9 0cbe dbd6 e0bd ab24 26bd 4549 2c3d
00000020: cd26 f13d acde d43c da92 3cbb 8b98 ccba
00000030: e175 cc3a 97cb 71bc 6dd0 f33c 9355 4cbb
00000040: 6f8b 333d 3a4a 9bbd c26c a73d 8163 fa3b
00000050: 8946 dbbd 6930 8ebd c124 a83d 5e04 343d
00000060: 5046 033e 4726 fc3d 0505 9fbd 0d3b babc
00000070: e0c5 5ebc fce9 e4ba 6b10 d43d 5b18 813d
-0.10980662 -0.052246407 -0.060468372 0.024265716 -0.13742621 -0.109784804 -0.040562313 0.042062063
0.11774979 0.025985084 -0.0028774054 -0.0015609426 0.0015599095 -0.014758012 0.029762471 -0.0031178936
0.043834146 -0.07582517 0.08175041 0.0076412563 -0.10706813 -0.06942827 0.08210135 0.043949477
0.12819791 0.12311988 -0.07764629 -0.022733236 -0.013596982 -0.0017464752 0.10354694 0.063034736

decoder.0.weight f4 [48, 32]
00000000: 581b 74bd 50bf 3d3c d397 6ebc a640 ae3c
00000010: 3b9b 17be 413b 0abe a6e7 8bbc c0bf 063d
00000020: 5336 26be c9ec 5dbd 365d 123e 5f66 4f3c
00000030: 78e8 25bd f872 34be 89b3 99bd 23df 32bd
00000040: 6a49 aa3d cf9a ffbd 070c 5b3d 79e2 14bd
00000050: 9c83 8ebc d0b6 9abd 2792 80bd e7ba 6a3d
00000060: d726 053e 819d 313d 0819 e33c 893f ba3d
00000070: 4b4b 01bd d60f d33c 2d3a 003e 0d06 a53a
00000080: 6871 ce3d 8711 2abe 0e2e e6bd 37db 16be
00000090: f797 0cbe 225e 36bd 9300 40bd b7ad cf3d
000000a0: 1347 04be 187a 42bb b106 193e 6b43 e5bc
000000b0: 71d0 2fbc a984 143c 4d6d f5bd f8ee 2abd
000000c0: a0d8 2abd b92f 1abd 1ba3 073e 1dda 80bd
000000d0: 56b2 04be 40f0 36bd 8928 2f3e 5f18 39be
000000e0: bf16 a43d 18be 123e 709d 043e b907 39bd
000000f0: 0118 a73d b186 0c3e 13d8 193d 6a31 d6bc
00000100: f84c f13d a4b8 523d 583d 5dbd d5e8 17bc
00000110: 8701 d13d 48d7 13be 9183 453c f859 2ebd
00000120: a5e7 09be f0b1 af3d 2c66 31be fd53 cc3d
00000130: c249 3dbd bb0a 163e d509 38bd 6fd7 373e
00000140: 28c9 11be 6698 d5bd fb6d 1d3d 9a7f e0bb
00000150: c7d6 433e d008 9c3d 808e a93d 94b2 15be
00000160: 6093 f73a 2a09 a8bd a54a 153e 3da7 0a3c
00000170: 41d0 23be 55c6 fe3d 2895 47bb d551 57be
00000180: 755a c6bc 93d0 173e 66aa 683d fa00 09bd
00000190: 5169 54be 2b66 27bd 5053 fa3d e08a 4dbe
000001a0: e67d 24be 3c6a 773d 7c61 0ebe 758a 993d
000001b0: 04ba b1bc 4d53 babd 93b8 b13d 0b2b 513d
000001c0: eef6 853d 26dc 9b3d 3a06 123d 32b6 00bb
000001d0: d6c3 1cbe a73a 16be 173a 32bd c788 9ebd
000001e0: c93e 873d 9347 0f3d 3ab9 94bd 871e 2fbe
000001f0: 24bb 9b3d f1e7 3e3d 8e88 b13d 8c3c 19be
00000200: 993a a43d 1d81 19be 919d 3bbe 4b88 503e
00000210: 15c9 b63c c55f d43d 5a97 87bd 0736 dabc
00000220: 5262 433e fc0a 923d 4ced f03d 2a2d ea3d
00000230: f6f1 5f3d c94d 84bc 7d01 a73d 253d 0dbe
00000240: bb4f d63d 2cac 333d ac05 193e de57 f7bd
00000250: 49ca 993d 1c76 29be cce2 0fbc 552c 13be
00000260: 1461 cebd e578 6c3b eb3d f5bd c06d 15be
00000270: fab1 0ebe 796c 2a3e fbc5 d63c 9c53 24bd
00000280: 10f0 15be 1bc2 983d 8a38 453d 36d1 913d
00000290: 56cf 26be 7e9b 0ebe 0e6c 10be 8163 8bbd
000002a0: 2204 2fbd fc2b 023e 97ba abbd 7348 a43c
000002b0: 39c3 60be c7e1 3abe 4809 4bbe 2f5b 00be
000002c0: a190 103e d64c b63d 54cf e53d 3057 d33d
000002d0: 60b3 8cbd a014 3d3b 05e5 cdbd ef51 c83d
000002e0: 1db6 de3c 8146 eebc bb31 2cbe 2e0b 72bc
000002f0: 8314 23bd 9a23 dcbc 334e 1ebe a915 24be
00000300: 97fa e8bc 7563 29be 8f3c 6ebe 1a20 533e
00000310: e094 143c 8d03 bdbc 6d0e 69be f22a ba3d
00000320: aeff 51bc f15a 22bc 9ed9 0abe f20b f6bd
00000330: f899 c13b 2548 2a3e 584a a53d e096 6cbe
00000340: 97ec 8d3d 5893 acbd 21fd 2dbd e03a cbbd
00000350: 9885 8d3e 9c43 36be b10f cdbd 4616 35be
00000360: 063d f2bd 505f 4f3e bc0c 163e 657d 73be
00000370: da5a 13be 5d78 803e 7927 80bd e620 f83d
00000380: 4dbc b4bc 2ee0 02be 7552 abbd 7ba2 743d
00000390: 0225 0fbe 3679 84bc 5c4e 1dbe bf8b aabc
000003a0: dc49 b73d 80fa a5bd a5a1 b83d 9cc6 efbd
000003b0: d7f7 c83d c71d fbbb fc03 01bd e075 51bd
000003c0: 0190 393e 7f9b 4abd 231f 90bd 8ba2 1fbc
000003d0: 558c 373e ebab 57be 57ee 9d3d 3ef8 08be
000003e0: 4cdf ad3d 102c 3c3e f829 0f3e b7c6 f33d
000003f0: c42d d73d 87a5 66bd 2deb de3d 61c5 6f3d
-0.05959639 0.011581257 -0.014562565 0.021271061 -0.1480531 -0.13499166 -0.017078232 0.03289771
-0.1623166 -0.054180894 0.1429337 0.0126586845 -0.040504903 -0.17621982 -0.07504947 -0.04366983
0.08314784 -0.12480699 0.053478267 -0.036348794 -0.01739674 -0.075544 -0.06277876 0.05730715
0.13003097 0.043363098 0.027721897 0.090941496 -0.031565946 0.025764387 0.12522192 0.0012590304
0.10080224 -0.16608249 -0.11239253 -0.14732061 -0.13729845 -0.044523366 -0.046875548 0.10140555
-0.12917738 -0.0029674824 0.14943959 -0.027986249 -0.010730849 0.009064832 -0.11983738 -0.041731805
-0.041710496 -0.037643168 0.13245814 -0.06291602 -0.12958655 -0.044662714 0.17105307 -0.18075703
0.08012151 0.14330328 0.12950683 -0.04517338 0.08158875 0.13723256 0.03755958 -0.02614661
0.11782259 0.05144562 -0.05401358 -0.00927182 0.102053694 -0.14437592 0.012055294 -0.04256627
-0.13467272 0.08578861 -0.17324132 0.09976957 -0.04621292 0.14652531 -0.04493125 0.17953275
-0.14236891 -0.10429458 0.038434964 -0.006851149 0.191249 0.07618868 0.08279133 -0.14618903
0.0018888526 -0.08204873 0.14579256 0.008462724 -0.15997411 0.124401726 -0.0030453894 -0.2102731
-0.024213055 0.14825659 0.05680313 -0.033448197 -0.207433 -0.04086892 0.12222922 -0.20072508
-0.16063651 0.060404047 -0.13904375 0.07497112 -0.021695144 -0.090979196 0.08677783 0.05106644
0.06541239 0.07610349 0.03565047 -0.0019639847 -0.1530908 -0.14670812 -0.04351243 -0.07740932
0.06603772 0.034980368 -0.07261892 -0.17101489 0.076040536 0.046607915 0.08668624 -0.14964503
0.08018989 -0.14990659 -0.18321826 0.20364492 0.02231268 0.10369829 -0.06620665 -0.02663709
0.19080475 0.07131001 0.11764011 0.114343956 0.05467411 -0.016150372 0.08154581 -0.13792856
0.10464426 0.043865368 0.1494357 -0.12077306 0.07509286 -0.16548961 -0.0087821 -0.1437238
-0.1007711 0.00360828 -0.119747005 -0.14592648 -0.1393508 0.16642942 0.026217451 -0.0401188
-0.14642358 0.07458898 0.048149623 0.07119982 -0.1629003 -0.13926503 -0.1410372 -0.06806088
-0.04272855 0.12712091 -0.083851986 0.020054078 -0.21949472 -0.1825019 -0.1982776 -0.12534784
0.14117672 0.08901374 0.11221185 0.10319364 -0.068701506 0.0028851405 -0.10053448 0.097812526
0.027186448 -0.029086353 -0.16815846 -0.014773173 -0.039814483 -0.026872445 -0.15459518 -0.16023888
-0.028439803 -0.16541846 -0.23265289 0.20617715 0.009068698 -0.023072982 -0.22759409 0.090902224
-0.012817306 -0.009909377 -0.13559577 -0.12013997 0.005908247 0.16629083 0.080708206 -0.23104429
0.069298916 -0.08426541 -0.04247773 -0.09923339 0.27640986 -0.17799228 -0.100127585 -0.17684278
-0.118280455 0.20251203 0.14653295 -0.23778303 -0.14390126 0.2509183 -0.06257529 0.1211565
-0.022062445 -0.1278083 -0.08365337 0.059725266 -0.13978961 -0.01617108 -0.15361923 -0.02081859
0.089496344 -0.0810442 0.09015206 -0.117078036 0.09812897 -0.007663462 -0.03149794 -0.051137805
0.1812134 -0.0494647 -0.07037189 -0.009743343 0.17924626 -0.21061675 0.07711475 -0.13375947
0.08489856 0.18376184 0.13980854 0.11903136 0.10506776 -0.056310203 0.108847 0.058537845

decoder.0.bias f4 [48]
00000000: 0c14 c73d 4f84 3b3d fa7b cf3c dafd 363e
00000010: 4d6a 263d ba27 8ebd b2d9 35bd a769 ca3d
00000020: b6dc 1fbd 4a51 0d3e b472 05be 7695 1abe
00000030: ba20 693d e89a 7d3d b69e 5d3d 4324 2d3e
00000040: 706e 083e 0ca8 0f3e ef19 14be c8e7 9d3d
00000050: 5720 403d 2ba7 08be 410a b8bc 60b2 a23d
00000060: d87b 883d efc0 aabd 0550 0ebe 8f35 2c3e
00000070: 4116 e9bb 65fc 8c3d 7a7c d8bd 9490 a1bd
00000080: 5ee7 dfbd 0b62 d33d 32a0 b0bd 28b7 67bc
00000090: 3016 d6bd 2d25 02bb 06b8 703d 0cd1 a63d
000000a0: 154d 92bd dc00 18be ef6e f33d 20bd f73d
000000b0: f0bd 6fbc cae1 42be 61fa 1bbe 5aff eb3c
0.097206205 0.045780476 0.025327671 0.17870274 0.04062872 -0.06941171 -0.044397064 0.09883433
-0.039028846 0.1380054 -0.13032037 -0.15096077 0.056915976 0.06191531 0.054106437 0.16908364
0.13323379 0.14028949 -0.14463018 0.077102244 0.04690584 -0.1334502 -0.022465827 0.079441786
0.06664246 -0.083375804 -0.13897713 0.16817306 -0.0071132486 0.06884078 -0.10570617 -0.07888904
-0.10932802 0.103214346 -0.08624305 -0.014142789 -0.10453451 -0.0019858584 0.05876925 0.08145341
-0.071436085 -0.14844078 0.11886393 0.120966196 -0.014632687 -0.19031444 -0.1523223 0.028808285

decoder.2.weight f4 [64, 48]
00000000: 77db af3d 188f 69bd 96a8 5c3d 9875 ae3c
00000010: 3c35 a1bd 1257 363e af34 063e 96b3 cb3c
00000020: 82ae 1abe 775c 873d 3974 523e ea0d 19be
00000030: ef37 9e3d 5edb 0f3d 4c8a cabd 9138 353e
00000040: 6657 1e3e bf9c 75bd 1822 0d3e 998a dfbc
00000050: e92f e1bd 85c5 59bc 7895 92bc f4d5 d0bc
00000060: 5d93 cd3d 123a 5cbd f2be 36bd c614 5dbd
00000070: 3682 9bbd 57ad 2c3e d002 f33d fb6f cfbc
00000080: 5213 293d 1e5e 673e 74d1 2abd 9f4c 09bc
00000090: cbc0 23bc 932f 0ebd 6e6a 0c3e f60c a3bd
000000a0: 42cb febd 35ba 99bd 54c7 a73d a1fd 983d
000000b0: 54b1 9d3b 04e7 f83d 5b86 853a f793 d2bc
000000c0: f357 e43c f2fa f23d bde9 9b3d 30dd 9cbc
000000d0: 8964 f63c 532c 083e 65d3 d5bc 95d3 6b3d
000000e0: 20c5 aabd 6882 0abd f3f1 70bd 534e a7bd
000000f0: a6ad 15bc 8812 c7bd 506d 00bb bfd7 663d
00000100: 7fe2 59bd 6f7b 7a3d 0c08 efbd b2da bf3d
00000110: 6a92 c8bd f567 38bd 6d53 d03d 7b70 a43d
00000120: bc4c 1bbe e4d4 eb3d 96b0 71bc d6cc 68bd
00000130: f74a 143d eb15 53bd 0040 193d 78ac db3d
00000140: 0460 01bd 7834 d5bc 3c28 6a3e 02d2 363a
00000150: 6c18 3abc 9df8 ad3d f277 02bc 508b 2bbe
00000160: 28ba c83d 49ee 32be 2746 cebd 627f 313d
00000170: 1fd5 11be e8b2 8abd 4143 59bc b6cc 223e
00000180: 283e 8abc a66d 61bd 3bf0 db3d fc74 efbd
00000190: 1dfe 50bc 6b6f e8bd aab9 c7bd 7948 133d
000001a0: c16a c43c ca6a 5a3d ce1b b4bd c2c4 17be
000001b0: e84c 183d 7e44 9b3d 803f e0bd f511 253e
000001c0: 5f34 ae3d 6377 d1bd 72b7 dcbd 6ee5 143e
000001d0: 3b5e b5bd 13df c63c 1cc2 413e 0dfb d43d
000001e0: b894 3fbc f4c1 60bd 16b4 1a3d 6841 0c3d
000001f0: 6684 1c3e 7711 1abe e07a 8d3d ad71 8c3c
00000200: 6ded adbd 7228 6c3d ecee 12be e8ec f93b
00000210: 36d7 df3d 04c1 a2bd b9fe f9bd ebe7 e53c
00000220: a41c c1bc 4342 1dbe 62df f5bd 6171 f83d
00000230: 1329 ea3c e262 9c3c 56be ec3d 89f8 92bd
00000240: 6528 193c e7ea 2c3e 52a2 b3bd 685b f6bd
00000250: 6964 f43d 8a93 c2bc 915b babd 9eca ca3c
00000260: 5b48 afbd 2c05 1b3e caf1 adbd 8681 f73c
00000270: 6284 2abd 1ff3 02be 1c2b 1ebe 332e b6bd
00000280: c154 e5bb e595 c73d e830 92bd a4cf bcbd
00000290: 74a9 803c 22f9 323e 87c6 0ebd 65a6 bd3d
000002a0: 80ec dabc b6d9 04be 3b87 533d b436 13bb
000002b0: 09d9 65bd 096e cb3c 9a12 bebd 07c8 0b3e
000002c0: f922 15be 1f46 10bd 1915 c43d e61d d03c
000002d0: f103 b8bd 3f1f e43c 839e 2d3d 97df f6bc
000002e0: 036a 1dbd c474 edbd 1360 db3d e267 51bd
000002f0: 1307 0d3e f896 d23d 0372 513d 3f4e b23d
00000300: aee5 b93d 8a15 0d3d 0dd6 d03d d8a4 80bd
00000310: fab1 e3bd 62d6 7bbd b758 f9bc dcb0 d2bd
00000320: e988 1dbe 08cd c4bc 0cf7 99bc cbf7 d73d
00000330: 9ed2 09bd d6ea 3b3d b36f 443d 008d 1c3d
00000340: d6f0 fe3d 8c8e 93bd 7f9e acbb 922d 2a3d
00000350: 0faa f7bd 92c2 693d 943c 18bd aced 2e3d
00000360: 580d efbd 4cc0 7ebd d9c5 50bc 9471 b8bd
00000370: f67b c63d dfc0 14bd 5a5e f1bd 0cc7 dc3c
00000380: fc45 edbc 10dc 03bd d2db dabc ecca 66bb
00000390: bfa3 fbbd b868 c03d 751c f2bd 8301 263c
000003a0: abda e43d 559b 3cbb dfcb ca3d 2bbe 603d
000003b0: 95fb 803d 3a70 8ebd 3dd1 033e 0f6c c43d
000003c0: afe8 09bc fe16 eebd 8ace 36bc 54ab e03b
000003d0: f7ea 7abc 27ac 683d d89e f6bc ef9d 15be
000003e0: 4076 093d 6214 1d3e b5a0 a63c 52cf c5bd
000003f0: 18c6 a9bd a396 a53c db8c e9bd 4822 913d
0.085867815 -0.05702123 0.053871714 0.021296307 -0.07871482 0.17806652 0.13106035 0.024865907
-0.15105632 0.06609433 0.20552148 -0.14946714 0.07725512 0.035121314 -0.09889659 0.1769736
0.15463027 -0.059963938 0.13782537 -0.027287768 -0.10995466 -0.013291721 -0.017893538 -0.025492646
0.10037873 -0.053766318 -0.044615693 -0.05397489 -0.07593195 0.16862999 0.11865771 -0.025321951
0.04127819 0.22594497 -0.041703656 -0.008380084 -0.009994696 -0.03471334 0.13712475 -0.079614565
-0.12441112 -0.07506219 0.08192316 0.07470251 0.004812399 0.12153438 0.0010187136 -0.02570532
0.027873969 0.1186427 0.076129414 -0.01914844 0.030077236 0.13298158 -0.026101777 0.057574827
-0.0833838 -0.03381577 -0.05882449 -0.08169236 -0.009135639 -0.097203314 -0.0019596405 0.056358095
-0.05319452 0.06115287 -0.11671457 0.09367885 -0.09793551 -0.045021016 0.10172162 0.080292664
-0.1516599 0.11515215 -0.014751574 -0.05683597 0.036204305 -0.051534574 0.03741455 0.10726255
-0.03158571 -0.026025996 0.2286691 0.00069740426 -0.011358362 0.08494685 -0.0079631675 -0.16752362
0.098011315 -0.17473711 -0.10071974 0.043334372 -0.14241455 -0.06772405 -0.0132606635 0.15898404
-0.016875342 -0.05503621 0.1073918 -0.11692235 -0.012755898 -0.11349376 -0.097522095 0.035957787
0.023976685 0.0533245 -0.08794366 -0.14821151 0.03718272 0.07581423 -0.10949612 0.16120131
0.08506083 -0.10227849 -0.10777177 0.14540645 -0.08855864 0.024276292 0.18921703 0.10399447
-0.011693172 -0.054872468 0.0377694 0.034242064 0.15284881 -0.15045725 0.06908202 0.017144049
-0.08492551 0.05765576 -0.14348954 0.0076271184 0.1092972 -0.07946971 -0.122067876 0.028064689
-0.023573227 -0.15357308 -0.120054975 0.12131 0.028584039 0.01909012 0.11559741 -0.071763106
0.00934801 0.16886483 -0.087711945 -0.12029153 0.11933214 -0.023751993 -0.09099496 0.024754819
-0.085587226 0.15138692 -0.08493383 0.030213129 -0.041630156 -0.12788056 -0.15446132 -0.088955306
-0.006998629 0.09745387 -0.071382344 -0.09219292 0.015705802 0.17477849 -0.0348573 0.09260253
-0.0267241 -0.12973675 0.051642638 -0.0022463026 -0.056115184 0.024832742 -0.09280892 0.13650523
-0.14564122 -0.035223123 0.095743366 0.025404882 -0.08985127 0.02784693 0.042387497 -0.030135913
-0.03843118 -0.11594537 0.10711684 -0.05112446 0.1377223 0.10282701 0.05113412 0.087063305
0.09077011 0.03444437 0.10197077 -0.062814415 -0.11117931 -0.06148375 -0.03043781 -0.102876395
-0.15384258 -0.024023548 -0.018794559 0.1054531 -0.033648126 0.045878254 0.047958087 0.038220406
0.124482796 -0.07204923 -0.0052679176 0.041547365 -0.12092983 0.057070322 -0.037167147 0.04270713
-0.11672467 -0.062195107 -0.012742483 -0.09006038 0.096916124 -0.03631675 -0.11785574 0.026950382
-0.028964035 -0.03219229 -0.026716147 -0.0035216166 -0.122870915 0.093949735 -0.11821834 0.010132196
0.1117452 -0.0028779109 0.099021666 0.05486886 0.062979855 -0.06954999 0.12872787 0.09590923
-0.0084172925 -0.11625479 -0.011157641 0.0068563614 -0.015314809 0.056804802 -0.03010504 -0.14611028
0.033560038 0.15339807 0.020340303 -0.09658684 -0.082897365 0.02021343 -0.11403819 0.07086617

decoder.2.bias f4 [64]
00000000: 9bec 713c 8fd5 f8bb 7417 183e 228e 073d
00000010: ff03 debc 68eb 2fbd 412b ecbc 3830 d9bd
00000020: 5eca 00be cc45 9abb 245a 1f3e fa8f 7eba
00000030: b5da f13d 40bb b2bc 2d6f b6bd e663 673c
00000040: 31ff 55bc 7343 6b3d 08cd bc3d 5eb4 d3bd
00000050: 2def d3bd 039e 113e 0e79 08bd ba5e 063e
00000060: b354 fbbc bb65 54bd e172 3e3e 0ac9 60bd
00000070: 897d 12bd 9ccb 81bc d1d1 4b3d ac80 ca3d
00000080: 783c 3bbd c786 aebd 62e2 903d 7e0d 573d
00000090: b397 f03c 36f4 2ebd 036d a93d 2612 d83d
000000a0: b2fa 0bbb 2955 093d 45ef bf3d ecce 04be
000000b0: 3d6e cc3d c946 2abd 10aa 70bd 1439 50bd
000000c0: db4d 7c3d efcc 63bd 77cf fcbc 0d27 113e
000000d0: ed19 bcbd 867e 0d3e 6849 843d c68a b6bd
000000e0: ef75 d0bd 092d e13d 7c78 d33d 0073 573d
000000f0: c365 56bd c038 023c 6195 9a3d b750 b23d
0.014765884 -0.0075938175 0.14852697 0.033094533 -0.027101515 -0.04294911 -0.028829219 -0.106049
-0.12577197 -0.0047080275 0.1556173 -0.0009710785 0.11809293 -0.021817803 -0.08907924 0.014122939
-0.013061331 0.05743737 0.09218794 -0.10337137 -0.103483535 0.14220433 -0.03331857 0.13122073
-0.030680036 -0.05185483 0.1859851 -0.054879226 -0.03576425 -0.015844159 0.049760643 0.098878235
-0.045711964 -0.085218005 0.07074429 0.0525031 0.02936921 -0.042713366 0.082727455 0.105503365
-0.0021359143 0.03352848 0.09371809 -0.1296956 0.09981964 -0.041571412 -0.058755934 -0.050835684
0.061597686 -0.05561536 -0.030860646 0.14175053 -0.091846325 0.13817796 0.06459314 -0.08913188
-0.10178744 0.10994918 0.10325715 0.052599907 -0.05234314 0.007948101 0.07548023 0.087068014
