animal_classifier.pth (torch, 392334 bytes, 22 tensors)

network.0.weight f4 [128, 64]
00000000: 683a 0b3d 09f7 0abd e7ce d1bd 66d4 d23c
00000010: 88ee 803d 6bbd cbbb 6b9c c539 cfe9 fa3d
00000020: 6a71 4d3c 92a0 a9bb a291 1f3e 66de d8bc
00000030: d752 b4bd 74e4 3ebd 6c2e 983d ccea fa3d
00000040: df0c 92bd 4a59 cebc 21b5 f03d 7435 a7ba
00000050: d209 1c3d 6be7 c33d 259a f73d 1e18 203d
00000060: 7777 f9bd 2398 653d 51ba 063e d574 b0bd
00000070: 02b8 8b3c bd64 21bb 0210 903d e820 ccbd
00000080: 9bff dbbd 9237 bf3c b7d6 3dbb bd5f 8dbd
00000090: c4e9 5bbd 8e5b 7cbd 6b5f b23d 9a64 1bbd
000000a0: db26 f13d dcc5 7bbd 27c5 8d3d 8152 abbd
000000b0: 6ce4 bcbd 19a9 de3d da5d 83bd a736 3fbb
000000c0: 2ac5 873d 85a5 e5bd 3311 debd 4752 88bc
000000d0: 24f4 fe3d f5f8 9e3d 4f3e 083d 94f0 39bd
000000e0: d1c6 4b3d 3df4 ef3b f9ea 61bc d0d1 37be
000000f0: a890 923c 08f2 aabd e2c5 573d f700 e53d
00000100: 829d f63c fba0 623c 26e1 3a3d 80ac ef3d
00000110: ddf2 143b fd2c a63d 9a3f 92bc e3a3 d93d
00000120: 25ea 123d dd5f 3b3d eda3 963d e955 cebd
00000130: 59f4 da3d eafe c83d 41cc ce3d b24f 81bc
00000140: 10b7 3cbc c612 263d 73a4 0cbd 4dd6 7abd
00000150: 3695 163d 65ba 2ebd 7350 aabd 3ec7 95bc
00000160: 343a a73d 4af4 1fbd 6f93 c63c a2ae 1fbd
00000170: 1d8d 3e3d d955 163e 81ae 60bc 8c81 b8bc
00000180: dc7e cabc f930 9abd 6c8d 643c 7dcf eb3d
00000190: d420 b83d a482 3cbc ddfb 283e 80fb b73d
000001a0: 86a1 5b3c 9509 fa3d 8730 b33c 0728 09be
000001b0: becc 703c ea8d c8bd 6b4c 11be 9944 1abe
000001c0: 108c fb3c 4e4a 5ebd c421 5d3d 1ecd 073e
000001d0: 1fd7 5c3c 82f1 c4bd 0e38 1ebd a0c1 38bd
000001e0: cbd8 99bc 5cbe 3cbd 9602 ee3d 4fdf 9cbd
000001f0: 13d5 19bd eec1 1fbe 29d1 53bd 7144 d3bd
00000200: e4b8 60bd a904 ff3d 7771 acbd 95de adbd
00000210: ad16 32bd bf3e 7cbc 266c b13c c816 2abd
00000220: 913f cdbd ef83 103e 6b50 8a3d 2f65 6ebc
00000230: 71ba 063e ab51 113b d14e 39bd ea15 77bd
00000240: 7c53 783d f237 283d f308 013d cbb7 8e3d
00000250: b20c 2cbb 908e 843d 7f8d 0f3d 2221 e8bb
00000260: da23 87bd 0af4 abbc b46c 273e 539f 34bd
00000270: f281 fc3c 7423 c6bd 823b 6d3d 8440 b33d
00000280: a2d2 bb3d 6cfc 1b3e 8cfe 8b3d 9802 dd3c
00000290: cf09 12be dafe abba 5d59 dabb 6876 033d
000002a0: e3be 0abe 3959 df3d d607 7dbc f100 db3c
000002b0: 8b20 f8bd c723 06be 05f4 8bbd a4bb f23d
000002c0: 418d a7bd c214 87bd cca9 9c3d bea6 2cbd
000002d0: e8ee 393d d869 90bc eb1d 2c3d 8d34 f63d
000002e0: 9bc2 2bbd b9fb 8b3d cfcc 86bd 9933 583d
000002f0: 7317 06bb aec8 24bb 7ee4 923d 6882 27be
00000300: d721 703c 694f ecbc 2cc5 0b3d ef2e 9ebc
00000310: 0dcd d53c 2fc1 11bc 0355 483d 0afa 2dbd
00000320: 805b ab3d ffde 753d 26da 36bd 0ad9 03bd
00000330: 1b37 94bd 17a5 963d 132b 883c 821a ff3b
00000340: 4c15 7dbd 3471 aabd 65f9 38bc f00c 523d
00000350: 8590 3f3c b56b 0f3d 91ee 1cbe c4ab b83d
00000360: c356 7ebd 34e2 e6bc 5493 13bd 14e5 00be
00000370: 51c0 81bd 2a5b 1f3d 7b85 a3bd 288c eebd
00000380: 39c4 e6bd 6158 ea3c a4de d4bd 900f 8c3d
00000390: b018 bebd ffc2 ee3c 65a6 81bd d848 bb3c
000003a0: d2be f0bc ed55 d83d eb90 263d c803 adbd
000003b0: adee c03d 5d04 29be bb71 f9bd 4b25 af3d
000003c0: f4a9 00be 4172 093e 84f8 143e 59a0 54bd
000003d0: 92a2 c03b 344d 873d 1293 6f3c a1e7 3b3c
000003e0: 8fcc 653d 4b72 913d 0932 9ebd a5d3 013e
000003f0: ca8a 87bb 540f c3bd 9823 0d3e ffc1 b7bc
0.033991247 -0.033926997 -0.102445416 0.025736045 0.06295496 -0.0062176487 0.00037691309 0.12251627
0.012539247 -0.005176612 0.15582898 -0.026473235 -0.08804863 -0.04660459 0.07430729 0.12251815
-0.07131361 -0.02518906 0.117532976 -0.0012757019 0.038095303 0.09565624 0.120899476 0.0390855
-0.12180989 0.056053292 0.13157012 -0.08616034 0.017055515 -0.0024626695 0.07034303 -0.09967214
-0.10742112 0.023341928 -0.0028967091 -0.06903026 -0.053689733 -0.06161075 0.08709606 -0.037937738
0.11774989 -0.06146799 0.069223695 -0.08365346 -0.092232555 0.108720966 -0.06414385 -0.0029176862
0.06629403 -0.11213211 -0.10843124 -0.016640795 0.1244891 0.077623285 0.033262547 -0.04539545
0.049750153 0.0073228166 -0.013788932 -0.17951131 0.017891243 -0.08346945 0.05267895 0.11181825
0.030104402 0.013832326 0.045624875 0.11702824 0.0022727766 0.081140496 -0.017852593 0.10626962
0.03586783 0.04574572 0.07355485 -0.1007498 0.10691137 0.09814246 0.10097552 -0.015785072
-0.011518255 0.040545247 -0.03433652 -0.06123953 0.036763392 -0.04265823 -0.08316126 -0.018283483
0.08165398 -0.03905133 0.024240224 -0.038984902 0.046521295 0.14681186 -0.01371348 -0.02252271
-0.024718694 -0.07528872 0.013949733 0.115141846 0.089906365 -0.0115057565 0.16502328 0.08983517
0.013405209 0.12208859 0.021873726 -0.13394175 0.014697252 -0.09792693 -0.14189307 -0.1506523
0.030706435 -0.05427008 0.05398728 0.1326184 0.013479023 -0.096163765 -0.038627677 -0.04510653
-0.018780133 -0.04607998 0.11621587 -0.0765978 -0.03755672 -0.15601322 -0.051713143 -0.103157885
-0.054863825 0.12452061 -0.08420079 -0.0848972 -0.043478657 -0.015395819 0.021658015 -0.041525632
-0.1002189 0.14112829 0.0675362 -0.014550491 0.13157059 0.0022173922 -0.04524118 -0.060323633
0.060626492 0.04106898 0.031502675 0.069686495 -0.0026252684 0.06472504 0.03504705 -0.007084028
-0.06598635 -0.02099039 0.1635006 -0.044097256 0.030823682 -0.09674731 0.05791808 0.0875254
0.091710344 0.1523301 0.0683566 0.026978776 -0.14261554 -0.0013122216 -0.006663485 0.032095343
-0.1354938 0.1090569 -0.015443763 0.026733847 -0.12115582 -0.13099585 -0.068336524 0.11852196
-0.08181239 -0.06595756 0.07649574 -0.042151205 0.045393854 -0.017628595 0.04202072 0.12021742
-0.041933637 0.06835122 -0.06582033 0.052783582 -0.0020460754 -0.0025144028 0.07172488 -0.1635834
0.014656506 -0.02884646 0.034123585 -0.019309489 0.026098752 -0.008896156 0.0489092 -0.042474784
0.083670616 0.06002712 -0.044641636 -0.032189406 -0.07237073 0.07355707 0.016622102 0.0077851424
-0.06178789 -0.08322373 -0.011289929 0.05128187 0.011692171 0.035014827 -0.15325381 0.09017137
-0.06209446 -0.028184034 -0.036029175 -0.12587386 -0.063355096 0.0389053 -0.07984444 -0.116478264
-0.11267895 0.028606595 -0.10394028 0.06838906 -0.092820525 0.029145716 -0.06330565 0.022861883
-0.029387865 0.10563264 0.04066555 -0.08447987 0.09420524 -0.1650557 -0.121798955 0.08552035
-0.12564832 0.1342249 0.14547926 -0.051910732 0.005878755 0.06606522 0.014622467 0.011468799
0.056103285 0.07101878 -0.07724387 0.12678392 -0.004136418 -0.09524408 0.13783109 -0.022431372

network.0.bias f4 [128]
00000000: 34ea e5bc 3799 d8bd 1f78 2f3c d14a e8bd
00000010: 78d4 38bc 7485 18bc d03a d1bd ba03 58be
00000020: adbc 4fbe b830 47bd 149f 02bd 223a d0bd
00000030: 6372 ebbd e68e 92bd 12a6 a6bd f8d5 84bd
00000040: 15c9 6abc a100 75bd a238 77bd 1465 92bd
00000050: 1926 603d 39d0 853d e0b8 06bd 9415 cdbc
00000060: 58bf 0bbe 55d7 2cbb da58 adbd dab8 b2bd
00000070: 3def d8bd c888 0abe c808 abbd 2b41 45be
00000080: fede eabc a2cc cd3d 76f1 24be 6fb4 99bc
00000090: c81a d8bd f81c d7b8 a1ff 313d a474 18bb
000000a0: ed44 35be 59b3 d93c a421 7fbd d304 893c
000000b0: 6e31 47bd 1170 58be 9860 cbbd 7aa5 603d
000000c0: 0dd2 39bc 8e5a d1bc fc44 1abe 931f 76be
000000d0: b435 11be 6cd6 643d fbe6 c93d 2e87 76ba
000000e0: 08aa d83b f926 a2bd 30c9 f9bd b12b 183c
000000f0: 2a7a cdbc 2adf 19be 06e7 e3bd 0c6f 67bd
00000100: 0a44 eb3c a60d a3bd 92e1 123d b06b a3bc
00000110: be67 f83c ce4d a7bd d198 e53d 3c75 f5bd
00000120: 7fec cfbd f756 693b 7f37 963b a4ce 1cbe
00000130: 90a7 20bd 2f57 723d 8245 233c 9154 8bbd
00000140: f8af 26be 8606 87bd 0110 643d f076 2a3d
00000150: 152e 1f3d 15ce fabd 97f2 d43c ce66 68bc
00000160: 4c08 3fbc b519 a6bc d811 8ebd 00cc 353d
00000170: 2848 03be a1b1 22be 8b0b e9bd 8761 bdbd
00000180: 627b f7bd 0c1e 8a3d 2538 1fbe 57b6 f7bb
00000190: c6d3 f43a b593 fa3b cf96 c23d e74f 36bd
000001a0: eaea 04be 676f 9f3d 826f 8c3d b0f8 d9bd
000001b0: 0d25 27be a71d 203d 3073 863d 0d6c a3bd
000001c0: ba05 19be 7f6f bd3d c635 9d3d 83c3 5a3c
000001d0: bdf1 f6bd 0f4f 6cbd b9fe 7f3d c4b1 073d
000001e0: ba97 5b3d f010 32be 2fc8 31be 79ab a3bd
000001f0: 3f69 d43d 2dc7 8bbd 75a0 acbd f0ed 65bd
-0.028065778 -0.105760984 0.010709791 -0.11342395 -0.011281125 -0.009309161 -0.10216296 -0.21095172
-0.20286818 -0.048630446 -0.03188999 -0.10167338 -0.11496427 -0.07156162 -0.08137144 -0.06486124
-0.014330168 -0.059815053 -0.060356744 -0.07148185 0.054723833 0.06533856 -0.032891154 -0.025034703
-0.1364721 -0.0026373465 -0.08464213 -0.08726664 -0.10592506 -0.1352874 -0.08351284 -0.19263141
-0.028670784 0.10048796 -0.16107735 -0.018762795 -0.10551983 -0.00010257395 0.043456677 -0.0023262883
-0.17702074 0.026574777 -0.06228794 0.016725933 -0.048631124 -0.211365 -0.09930533 0.05484531
-0.011341584 -0.025555875 -0.15065378 -0.24035482 -0.14180642 0.05586855 0.09858509 -0.00094042986
0.006612066 -0.0791759 -0.121965766 0.009287761 -0.025082666 -0.15026537 -0.111280486 -0.056502387
0.028718967 -0.079615876 0.035859652 -0.01994881 0.030322906 -0.08169137 0.11210788 -0.11985251
-0.1015253 0.0035604814 0.0045842524 -0.15313202 -0.0392223 0.059165176 0.009965302 -0.06803239
-0.16278064 -0.06593041 0.055679325 0.041617334 0.038862307 -0.12246338 0.025994582 -0.014184667
-0.011659693 -0.02027593 -0.06936997 0.044384003 -0.12820494 -0.15888073 -0.11379155 -0.092471175
-0.1208408 0.06744012 -0.15548761 -0.0075595784 0.0018678836 0.0076470026 0.09501421 -0.044509795
-0.12980238 0.0778492 0.06857206 -0.106431365 -0.16322728 0.03909078 0.06564939 -0.079795934
-0.14943591 0.09249782 0.07676272 0.013352278 -0.12057827 -0.057692584 0.06249878 0.033128515
0.053611495 -0.17389274 -0.1736152 -0.0799169 0.103716366 -0.06825099 -0.08429042 -0.056135118

network.2.weight f4 [128]
00000000: ab9f 7a3f 6e6f 793f b775 6a3f c583 833f
00000010: b177 803f 72b7 813f 7cde 803f f855 7d3f
00000020: 7654 803f 5f21 7c3f fc89 7c3f 439e 723f
00000030: f4fe 833f 7c25 803f a5c0 723f bfd2 733f
00000040: c4d8 803f ddb2 703f 3c22 803f 89da 763f
00000050: 3096 813f e1fa 843f eb65 833f da0a 773f
00000060: 53f5 773f 944f 853f 2753 733f cefa 813f
00000070: 8feb 7c3f dc6e 893f 1207 813f 8f71 793f
00000080: 3af8 7f3f a6ad 7b3f 1394 7c3f 2c72 733f
00000090: 27fe 7a3f a516 803f 3bca 7a3f 1c9c 763f
000000a0: 8182 7e3f c0df 7f3f fee6 7e3f 0462 803f
000000b0: 37f7 703f 89d8 7b3f 0548 7b3f 0e2e 813f
000000c0: 11ab 783f 1b56 813f 0c38 7f3f d9b1 793f
000000d0: 4c2f 7e3f f9ff 853f 4f32 823f 83f7 823f
000000e0: 621d 6d3f 87f7 7d3f ef59 803f 9de9 813f
000000f0: 81e1 763f 685d 7c3f 7bd6 7c3f 77dd 793f
00000100: 1850 823f a1d3 823f ecab 803f c540 833f
00000110: 3ac1 793f 78ee 7e3f 8302 853f c175 763f
00000120: d680 853f a343 793f fc3b 773f 4d70 843f
00000130: 5aa2 833f 78f1 7f3f 25a5 7d3f 4afc 803f
00000140: 9583 803f 9f17 7a3f b2dd 743f b52a 803f
00000150: ee5a 833f f142 7e3f 3862 7b3f cd47 883f
00000160: d0e0 7a3f 932a 823f a83f 763f d731 7f3f
00000170: 8a85 813f 075c 803f e761 823f 9500 783f
00000180: f37f 833f 1837 7d3f 023e 7b3f da99 873f
00000190: 1b95 813f ecfd 783f dd96 6f3f c681 833f
000001a0: 63ba 7a3f c5e3 853f 5fac 813f 1a2b 783f
000001b0: 5520 803f 5772 813f dc11 7b3f 8bda 843f
000001c0: 513a 6f3f 0669 763f 1e69 7b3f ed16 803f
000001d0: 359b 803f c43e 823f d170 793f e691 743f
000001e0: 664e 803f dc84 7b3f 4a24 753f a2bd 7f3f
000001f0: 493f 7e3f 2343 7f3f 246f 803f 187f 853f
0.97899884 0.97435653 0.9158587 1.0274588 1.0036527 1.0134108 1.0067897 0.989593
1.0025775 0.9848842 0.9864805 0.9477274 1.031218 1.0011439 0.948252 0.9524345
1.0066152 0.94022924 1.0010448 0.9642721 1.0123959 1.0389062 1.0265478 0.96500933
0.9685871 1.041491 0.95048755 1.0154665 0.98796934 1.0736957 1.0080283 0.974389
0.9998814 0.9831184 0.98663443 0.9509609 0.98044056 1.000691 0.9796483 0.96331954
0.99417883 0.9995079 0.99571216 1.0029912 0.9412722 0.9837728 0.9815677 1.009218
0.97136027 1.0104402 0.99694896 0.97537 0.9929092 1.0468742 1.0171603 1.0231785
0.9262296 0.9920582 1.0027446 1.0149418 0.9643784 0.98580027 0.9876477 0.97603554
1.0180693 1.0220834 1.0052466 1.0254141 0.97560465 0.99582624 1.0391392 0.9627343
1.0429943 0.9736883 0.96575904 1.0346771 1.0283921 0.9997783 0.99080116 1.0076993
1.0040156 0.9769229 0.9565078 1.0013033 1.0262125 0.99320894 0.98196745 1.0646912
0.97999287 1.0169243 0.9619088 0.99685425 1.0118878 1.0028085 1.0186127 0.9687589
1.0273422 0.9891219 0.9814149 1.0593827 1.0123628 0.97262454 0.93589574 1.0273979
0.97940654 1.0460135 1.0130728 0.9694077 1.0009867 1.0113019 0.98074126 1.0379194
0.9344836 0.96254003 0.9820727 1.0006996 1.0047365 1.0175405 0.9743777 0.95535123
1.0023925 0.982496 0.957585 0.9989873 0.99315315 0.9971182 1.0033917 1.0429411

network.2.bias f4 [128]
00000000: 415d 9c3c 1d90 72bc af09 42bd 0e7a 5abd
00000010: bd00 8c3c d25a 5f3c 497f 0ebd 113e 5b3c
00000020: b87a 33bc e428 57bc f2e8 b13b 5907 6b3d
00000030: eb79 26bc c1ab 073d c483 30bd 8019 8a3c
00000040: ba66 973d 88a5 ceba 28b0 0f3d c0df b0bc
00000050: 6300 82bc 263d 473d 89c4 49bc 14a6 563d
00000060: a284 8d3d c209 c83c 979d 0c3c 835e 273d
00000070: 7157 033c 5584 8abc 48d6 ed3c 5eb6 973d
00000080: 950b 9e3c be8b 72bb eb30 9a3c 1044 08bc
00000090: 862b 7c3d eb1e 343d ca1b 283d 974e acbc
000000a0: 2d78 8b3d 6234 033d 8a05 c3bb 7265 8b3d
000000b0: 1426 47ba 1bbe 153d 3481 e33c feb4 7f3d
000000c0: 00ea 6a3c c168 e83c e0fa 86bc d071 6f3d
000000d0: 4c64 7bbc 87da e53c 1ad3 8cbb 7b48 e1bb
000000e0: 79f0 1dbb 5d5d 38bc 4e68 2fbc 139a fa3c
000000f0: ecb2 00bd 7128 ae3c bbc1 2dbc f682 b7bb
00000100: a7bc c4bc 8c8d adbc 8617 8e3d d998 093c
00000110: 09d2 603c b4b9 903d 32a7 b4ba ac8d 723d
00000120: 1fe9 5c3c 6ccd 493c 0163 f63c 4e88 01bd
00000130: a0fb 903d d3ea 833d 741e 6dbd efc0 46bc
00000140: d011 103d 6182 aa3c e266 d53d d811 273d
00000150: d201 1a3d f752 633d b04e 4b3c dca3 25bc
00000160: 9331 ffbc cef0 39bd b489 503d 2054 fb3b
00000170: bc22 543d d9d3 b03d 45f9 d3bc 9545 6ebc
00000180: 41b6 07bd c2fc ec3c eed0 823d c603 8e3c
00000190: 2e06 c53c 0653 14bc 56ba 14b9 8ead 2ebd
000001a0: 2592 84bc 5b4b 46bc 7ee0 b33d d949 6cbc
000001b0: 6a81 863c 845e 69bd a512 f3ba 214b 933d
000001c0: 8f06 8bbb d15d eb3c 84e1 343d 15c8 3d3a
000001d0: 2575 ea3c 978c 2abc ee2b afbc 0cdf ab3b
000001e0: 82ee adbd 3ff3 3bba 053b 963c a697 823c
000001f0: f20c d03b 95a2 563d f9fe 5a3d 3244 e33c
0.019087436 -0.014804867 -0.047372516 -0.053339057 0.017090196 0.013632493 -0.034789357 0.013381497
-0.010954551 -0.013132308 0.0054293806 0.057380054 -0.010160903 0.03312278 -0.04309441 0.016857862
0.073926404 -0.0015765885 0.035080105 -0.021591067 -0.015869325 0.0486423 -0.012314924 0.05240448
0.06910063 0.024418715 0.008582494 0.040861618 0.008016453 -0.016908804 0.029032841 0.07407831
0.019292632 -0.0037009562 0.018822154 -0.008317009 0.061564945 0.0439748 0.041042127 -0.021033568
0.06810031 0.032032378 -0.005951588 0.068064585 -0.00075969216 0.03655825 0.02777157 0.062428467
0.0143380165 0.028370263 -0.016477048 0.05845815 -0.015343737 0.028058304 -0.004297626 -0.0068750954
-0.0024099632 -0.011252728 -0.0107060205 0.030591046 -0.031420633 0.021259518 -0.010605271 -0.0056003286
-0.024015738 -0.021185659 0.069380805 0.008398258 0.013721951 0.0706667 -0.0013782738 0.05921714
0.013483315 0.012317043 0.030076506 -0.03162413 0.07079244 0.064412735 -0.05789037 -0.01213096
0.035173237 0.020814123 0.10420014 0.0407885 0.037599392 0.055499043 0.012408897 -0.010109868
-0.031151569 -0.045395665 0.050912574 0.0076699406 0.051790938 0.08634157 -0.025875697 -0.014542957
-0.033132795 0.028929118 0.063875064 0.017335784 0.024050798 -0.009052997 -0.00014183795 -0.042645983
-0.016182968 -0.012102927 0.08783053 -0.0144219035 0.016419131 -0.056974903 -0.0018544985 0.07192064
-0.004242725 0.028731259 0.04416038 0.00072395924 0.028620312 -0.010409496 -0.021383252 0.005245095
-0.084927574 -0.00071697304 0.01833869 0.015941452 0.0063491995 0.052401144 0.053465817 0.027742479

network.2.running_mean f4 [128]
00000000: 950f 4d3e 4461 373e 3d54 793e 3b99 153e
00000010: 0c83 273e 10a5 4e3e a89c 163e 7cb8 d93d
00000020: 1852 b63d 08c2 4f3e ccc3 4d3e e114 443e
00000030: 0b81 1e3e d341 273e ce81 4b3e 9032 0f3e
00000040: 4924 6e3e d838 473e 2632 293e ad1f 413e
00000050: f53a 4b3e 3140 4d3e 384b 593e 63ad 5b3e
00000060: ad52 303e 6501 223e 7e75 1f3e 95a4 1e3e
00000070: 97c5 393e 59ec db3d 1c88 0d3e 70d5 193e
00000080: 9805 253e 2b6b 9e3e f710 f53d 45e0 483e
00000090: 521f 0d3e 23b6 453e a341 833e 0730 663e
000000a0: aaa6 d03d 7861 313e fc47 463e 8c4f 5b3e
000000b0: 94f3 733e 2e83 8b3d 4adc 4b3e 65a6 733e
000000c0: 75d6 583e bd8d 223e bf60 e23d 0058 e53d
000000d0: 9799 c43d ed6a 4c3e e25a 873e 6f60 553e
000000e0: 1866 633e da81 1d3e 76a4 013e e900 493e
000000f0: d320 733e 0341 e83d 3185 fc3d 6c91 173e
00000100: ea2e 573e d164 293e cf20 8c3e 3d95 3d3e
00000110: 2eda 603e 54bc 2e3e f1da 673e 39cb 5d3e
00000120: b20d 0d3e 0e06 5b3e c1a6 4c3e 3675 da3d
00000130: c5e8 4a3e 8ce7 543e cae0 613e 3aaf 183e
00000140: d091 343e d725 123e 0b8c 853e 3ac0 733e
00000150: 0420 5e3e 4503 103e 5841 613e dfd7 303e
00000160: b466 543e 13d2 213e 3e76 293e 656f 4e3e
00000170: 9cd0 0e3e 5f41 123e 3af4 0f3e d5bb 6e3e
00000180: 2ac5 de3d 8684 843e f950 1e3e 5cc2 453e
00000190: 7123 1e3e 6a77 3f3e bfe1 873e ee23 3e3e
000001a0: 9ee9 3c3e ef37 853e 4841 723e 6869 2b3e
000001b0: 652d f73d 3a79 663e 3f33 8c3e 45ce 1d3e
000001c0: b428 d73d 076d 873e 62e6 733e 7ea2 493e
000001d0: a17b 143e 13f0 153e c836 6a3e 46bc a93e
000001e0: 9eae 7f3e 86e9 e73d 6287 e43d 4fdc 1b3e
000001f0: 2375 833e 4fd9 2e3e 2e4b 073e 0b75 1d3e
0.20025475 0.17908198 0.2434854 0.14609234 0.16358584 0.20180154 0.14708197 0.10630891
0.08902377 0.20288861 0.20094222 0.1914859 0.15478913 0.16333704 0.19873735 0.13984132
0.23256029 0.19455278 0.16523036 0.1885974 0.19846709 0.20044018 0.212201 0.2145286
0.17219038 0.15820844 0.15572163 0.1549247 0.18141781 0.10738439 0.13821453 0.15022826
0.16115415 0.30941138 0.119661264 0.19616802 0.13781479 0.19307761 0.25636014 0.22479258
0.10188039 0.17322338 0.19363397 0.21417063 0.23823386 0.0681213 0.19908252 0.23793943
0.21175559 0.15874381 0.11053609 0.11198425 0.095996074 0.19962664 0.26436526 0.20837568
0.22206914 0.15381566 0.12660393 0.19629253 0.2374299 0.11340525 0.12330092 0.14801568
0.2101399 0.16542365 0.2736878 0.18513961 0.21958229 0.17064029 0.22642113 0.21659555
0.13774756 0.21389028 0.19985487 0.106668875 0.19815357 0.20791453 0.22058406 0.14910594
0.17633748 0.14272247 0.26083407 0.23803797 0.216919 0.14063747 0.21997583 0.17269848
0.20742303 0.15802793 0.16549012 0.20159681 0.13946766 0.1428275 0.14058009 0.2331384
0.1087745 0.25882357 0.15460576 0.19312423 0.15443207 0.18697897 0.26539418 0.18568394
0.18448493 0.26019236 0.23657715 0.16739428 0.12069205 0.22507182 0.27382848 0.15410717
0.105058104 0.2645037 0.23818353 0.19690892 0.14500286 0.14642362 0.2287246 0.33151454
0.24968955 0.11323838 0.11158635 0.1522076 0.25675306 0.17075084 0.13212273 0.1537668

network.2.running_var f4 [128]
00000000: e04e 943d 4908 9d3d 37c9 c93d 704c 503d
00000010: 08ee 4b3d ca15 973d 2ee0 563d 37f7 4f3d
00000020: 95e7 0b3d 428d a43d d2cb ae3d 8fc9 a43d
00000030: 4703 6e3d b27e 7d3d 9b1b c13d 225a 723d
00000040: f76f c73d 8c3d bc3d 7cd8 893d a6c5 833d
00000050: af2b 813d de62 ac3d fce9 c13d 3411 0c3e
00000060: 1357 b13d e9b7 573d 07b0 6c3d d3ba 7d3d
00000070: eba0 943d 379e 0d3d f9fa 343d 5acf 873d
00000080: 70e6 313d 782c ef3d 8913 0d3d 7c7c 9e3d
00000090: 566e 623d f850 ab3d c3c9 063e 8aa1 b83d
000000a0: 7345 173d 26a8 503d 5a7d 953d 9473 a63d
000000b0: eedc df3d 7905 a33c 8813 c23d 2de3 a83d
000000c0: 2df3 ae3d 27dd 403d 6757 003d 8029 373d
000000d0: c333 fa3c bec5 4d3d c121 c73d 8935 c83d
000000e0: d270 df3d d348 4a3d b809 4b3d 3118 7a3d
000000f0: 721d cb3d 12f9 2a3d 333f 103d 3871 443d
00000100: 00a4 773d bda3 5c3d f02c e13d babb 8a3d
00000110: 2975 a43d be14 903d 985c a63d 1e14 fc3d
00000120: f63a 513d 6a14 d93d 1014 a03d 2cc4 153d
00000130: 592b a43d 887c aa3d 9fdd c53d 01f0 693d
00000140: af87 b33d a5c4 363d 089b 0c3e 5dbf b53d
00000150: a4ed b93d 694e 4a3d f4f9 a33d ce51 473d
00000160: d355 c33d 1bb5 483d 3bf9 833d 401c 7e3d
00000170: c957 943d 161a 7e3d 4b94 783d b9c7 f03d
00000180: 2dc6 1f3d 7312 c23d 93b9 963d 3b4b 853d
00000190: 4a6e 1a3d 04d5 a33d 3f3c d63d c75a 8a3d
000001a0: cae0 953d a717 a03d 5c7b a23d b700 823d
000001b0: 0bb9 4f3d 470f 913d ef18 0a3e 1a5d 5b3d
000001c0: 034c fc3c 77fc ea3d 0bb7 9d3d 5bd9 853d
000001d0: 118d 3d3d f09c 4a3d 2499 d43d ff1c 4a3e
000001e0: 5e29 943d 2410 393d fb27 5a3d efbc 6b3d
000001f0: 4e8a b43d e6cd 663d d1e8 413d 3421 493d
0.07241607 0.07667596 0.09852832 0.050854146 0.04978755 0.07377203 0.05245989 0.05077287
0.0341564 0.08034755 0.085349694 0.08046257 0.058108594 0.061888404 0.094290935 0.05916799
0.097381525 0.09191427 0.06730744 0.06434183 0.0630716 0.08417295 0.09468457 0.13678437
0.08659186 0.052665625 0.05778506 0.061945748 0.07257255 0.034574714 0.04418466 0.06631346
0.043432653 0.116784036 0.03444246 0.07738587 0.055281006 0.08365053 0.13162903 0.09015186
0.036931466 0.05094161 0.072992995 0.081275135 0.10930811 0.01990007 0.094763815 0.08246455
0.08542476 0.047085907 0.031333353 0.04471731 0.03054226 0.05023741 0.09723235 0.09775836
0.10910191 0.049385857 0.049569815 0.061058227 0.099177256 0.04174144 0.03521652 0.047959536
0.060459137 0.05386709 0.10994899 0.06774087 0.08030159 0.07035206 0.081231296 0.123085245
0.05108162 0.10599597 0.078163266 0.036564037 0.080160804 0.08324534 0.096614115 0.05711365
0.08766114 0.04462113 0.13731015 0.0887439 0.090785295 0.049391184 0.08006659 0.048662
0.09537854 0.04900084 0.06444021 0.06203866 0.07243306 0.062036596 0.0606883 0.11756844
0.039007355 0.09476175 0.07359614 0.0650849 0.037702836 0.07999614 0.1046071 0.06755596
0.07318266 0.07817011 0.07933685 0.063477926 0.05071358 0.07082992 0.13486074 0.053555585
0.030797964 0.11473935 0.07700928 0.06535598 0.04627711 0.049466074 0.10380772 0.19737624
0.07234453 0.04518141 0.053260785 0.057553228 0.08815442 0.056348704 0.04734117 0.04910393

network.4.weight f4 [256, 128]
00000000: dabe 82bd 5577 d53c 6a0a 433d 9a44 f73d
00000010: 93eb 8d3c c32b 31bd 6a84 8abb 183c 59bc
00000020: ed38 e4bc e84a 8c3d ce96 10bd bcac a9bd
00000030: 3f59 b53d 3996 1ebe 61bf 90bd 8940 913d
00000040: b9e8 0fbd 10f4 c3bc ab09 8d3d 049d 793d
00000050: 9e61 61bd d1c3 a03d 8d87 d83d 7614 43bd
00000060: 3769 ef39 8aa2 7f3d 27d5 f3bd d849 9f3c
00000070: c2c4 80bd 7b4f 72bb dbb0 b5bd d215 923b
00000080: d485 0a3d 6a9c a73c 329c c4bc 3bb5 fd3c
00000090: 24b3 8dbd 867f 53bd 3d2d d23b e5c2 653c
000000a0: 526a 903c 132d 3ebd e493 b13c 266c b7bb
000000b0: 4d62 9d3d 1293 79bd c618 2abc aa9c 88bd
000000c0: 5c0a 59bd 7de4 8f3d 00b0 b03a 4a6f 13bd
000000d0: 616f b2bd 3d9b 283c a574 8f3d 8d97 343d
000000e0: 0d16 58bd 6d12 a23d a3d0 27bd 6f63 9e3d
000000f0: f642 b03c 2251 943b b9d3 b63c 7264 2b3d
00000100: 7289 63bd d544 0bbc 1614 adbd 33fc e13d
00000110: d230 8abc 0850 afbd 6dbf 2bbd fe5f 623c
00000120: c876 83bd 7168 973c 8c9d 9fba 2c73 c03c
00000130: 96fc cfba f446 06bd 4d94 fb3b a613 d7bc
00000140: 11f6 ddbc 6fb9 c63b a04f 4cbc b0cc 283d
00000150: 035e f3bd c617 03bd b665 59bd 23ce 8a3d
00000160: dbff fe3c 02ec debb 0de9 46bd b92a f9bc
00000170: ff3a 07be 6451 fa3c 8689 e4bb 9f1a 643d
00000180: 87ad 1bbd 2931 b53d c469 363c fa09 94bd
00000190: fec7 25bd 3741 c43c 3b46 2abd 3f25 a5bd
000001a0: 7545 19bd 4501 f5bc 0bf9 1d3d 5f09 67bd
000001b0: 9833 8ebd 39d3 bbbc 6e70 7a3d 67fc f1bd
000001c0: d00d 493d 0523 9f3c 7915 223d 4540 d6bc
000001d0: 599b 273c 3701 b3bd aa80 973c ee33 e03d
000001e0: dc32 e7bc 0786 263d f8ee 4937 68d6 8abd
000001f0: 5a68 883d a64f bd3c 46d4 a4bc c4e5 a4bd
00000200: f32f 4e3d 5f89 92bc 4428 713c 0925 903c
00000210: 7d27 87bd 2a62 863d 1a58 6b3b 5111 853d
00000220: 4f28 963c a030 24bc 94ae 11bb 0b68 25bd
00000230: db4f d1bd 81e8 8b3d b8d0 833c 8083 19bd
00000240: f6e9 f6bc f912 853d 6384 523d ccbc 3b3d
00000250: 3488 013d 8c0d cb3b 5332 823c 7a0d 153c
00000260: 5e81 1ebd 9bc3 6cbd 711c bbbd 15a1 b13d
00000270: 9a0d a13d a7f0 85bd ca0b 69bc 6bcc 21bd
00000280: f716 a1bd c9ad c3bd 6d88 deba 51e0 9d3d
00000290: eebf bc3d df81 b23d 0b4f 62bd 2f50 c63c
000002a0: e495 b7bc 3493 b33d 24a8 ad3d 170c 083d
000002b0: 782c 94bd 8e24 efbd 3ccf 45bd fb10 903c
000002c0: 9a75 79bd fad8 cd3d 4c68 81bb 1852 453c
000002d0: b32e 1cbd d3ed 1a3d 319a c13c 968d 083e
000002e0: 9700 b3bb 2368 d8bd 2537 24bd 0ccc 803d
000002f0: 1fed 933d 11fa 113d d542 093d ebfb 843d
00000300: a8b4 653d 991a 1e3d 3404 703d 2e0e c4bb
00000310: 339c 82bc f50c ccbc 181b 963d f3de 073c
00000320: 1718 e03b 863d ba3c fbe3 aabb 2846 a4bc
00000330: eced 84bc 4d09 7dbd 90dc 66bd 24c3 1cbb
00000340: 5a7e 66bd f525 7dbd 7cb6 1a3d bb84 cc3c
00000350: 226c f1bb fad4 92bd 2242 1dbd 772a 223d
00000360: 8b3c 523d 965f 25bd 7b0b babd ffaa 3d3d
00000370: e0d7 953d b421 6f3d 26d5 82bd f3a8 38bd
00000380: d1a6 66bd 4941 e83c 49ed 84bd dd2b b53d
00000390: c968 0f3d 8d27 53bd 0d22 2ebd 7e01 a4bd
000003a0: 2d64 1fbc 2cd8 103d 0067 a3bd b46d 973c
000003b0: ae01 80bd 1e73 0c3d 8542 8cbd e805 a2bc
000003c0: c83d 13bd 00c7 16bd b08e c5bc bf04 fe3c
000003d0: 9bdd 9abc 740f e43c 35b9 aebd 5478 d5bc
000003e0: e81b ee3d 0d2a 333d e8c1 babc 2e2d f43c
000003f0: 8fa3 f7bc c114 b7bc 3e6a b63c 39ee ae3b
-0.06384058 0.026057879 0.047617353 0.120736316 0.017324245 -0.043254625 -0.004227211 -0.013258956
-0.027859176 0.06850225 -0.03530007 -0.082848996 0.08854913 -0.15486993 -0.07067753 0.07092387
-0.03513405 -0.023920089 0.0688661 0.060940757 -0.055024736 0.07849849 0.10572729 -0.047626935
0.00045664023 0.06241087 -0.1190589 0.019444391 -0.062875286 -0.0036973644 -0.08871623 0.0044581676
0.033819035 0.020460326 -0.024000261 0.030970206 -0.06918934 -0.051635288 0.006414084 0.014023517
0.017628822 -0.046429705 0.021676965 -0.005597609 0.07684765 -0.060931273 -0.010381883 -0.06670506
-0.052988395 0.070260026 0.0013480186 -0.035994805 -0.0871265 0.010290918 0.0700467 0.044089843
-0.052755404 0.07913671 -0.040970456 0.07733809 0.021516304 0.0045262733 0.022317754 0.04184384
-0.055551 -0.008500298 -0.08451097 0.11034431 -0.016868982 -0.085601866 -0.041930605 0.013816832
-0.0641914 0.018482419 -0.001217769 0.023492418 -0.0015868123 -0.03278251 0.007677591 -0.026254486
-0.027094873 0.006064586 -0.012470156 0.04121083 -0.11883166 -0.032005094 -0.053075515 0.06777599
0.03112786 -0.0068030367 -0.0485621 -0.03041588 -0.13206099 0.030556388 -0.006974402 0.05568945
-0.038007285 0.08847267 0.011133615 -0.072284654 -0.04047393 0.023956878 -0.041570883 -0.08063745
-0.037419755 -0.029907832 0.038567584 -0.05640542 -0.069434345 -0.022927867 0.061142378 -0.1181572
0.04908544 0.019425878 0.03957126 -0.026153693 0.010229909 -0.08740466 0.018493969 0.10947405
-0.028222494 0.040655162 1.2036173e-05 -0.06779176 0.066605285 0.023109268 -0.020120751 -0.08051637
0.050338697 -0.01788777 0.014719073 0.017595785 -0.06599329 0.06561692 0.0035910667 0.064974435
0.018329768 -0.010021359 -0.00222293 -0.040382426 -0.10220309 0.06831456 0.016090736 -0.037478924
-0.030140858 0.06497759 0.051395785 0.045834348 0.031624034 0.0061966833 0.015893137 0.009097451
-0.038697593 -0.05780373 -0.09136284 0.08673302 0.078639224 -0.065400414 -0.014224002 -0.03950159
-0.07865708 -0.09554631 -0.0016977914 0.077088006 0.09216295 0.08716177 -0.055251162 0.024208156
-0.02241034 0.08768311 0.08479336 0.033214655 -0.07235044 -0.11676894 -0.048293337 0.017586222
-0.06090317 0.100511506 -0.0039492007 0.012043498 -0.038130473 0.037824463 0.023633095 0.13335261
-0.005462717 -0.105667375 -0.040091652 0.06288919 0.07222962 0.035638873 0.033511 0.06493362
0.05608049 0.038599584 0.05859776 -0.0059831357 -0.015943622 -0.024908522 0.073293865 0.008292901
0.0068388092 0.022734415 -0.0052151657 -0.020052984 -0.016226731 -0.061776448 -0.05636269 -0.0023920024
-0.056272842 -0.061803777 0.037771687 0.024965635 -0.0073676268 -0.07169528 -0.038393147 0.03959128
0.05132727 -0.04037436 -0.09084221 0.046305653 0.073165655 0.05838175 -0.06388311 -0.045082998
-0.056311432 0.028351443 -0.06490571 0.08846257 0.03501204 -0.05155139 -0.042512942 -0.08008097
-0.009728474 0.035362408 -0.0797863 0.018484928 -0.062503204 0.03428947 -0.06848625 -0.019778207
-0.03594759 -0.036810875 -0.02411589 0.031008122 -0.018904498 0.0278394 -0.08531419 -0.026058353
0.116264164 0.043741275 -0.02279754 0.0298067 -0.030229358 -0.022348763 0.022267457 0.005338457

network.4.bias f4 [256]
00000000: 550b 2a3d e7ba 0f3d 4443 dbbc 6148 ff3c
00000010: cae5 6fbd fd35 6e3d 4e19 c1bd ba7e 003d
00000020: 751d abbc b152 d73c 14b6 9dbd 1a13 003d
00000030: 0968 a63d cef2 99bc 13a9 7bbc dfa9 e33b
00000040: 8640 4fbc 5869 f53c a32b 07be 5b61 ab3c
00000050: 101b e93c 162e 15be 1ed8 8f3c 6711 8ebc
00000060: e6b9 c7bd b29e 56bd 67af ad3d bba2 543d
00000070: 2237 29bd 0aed 133d d9cf 92bb 0323 dfbd
00000080: 3486 01b9 ab59 013d 8f43 bbbd 72d3 da3b
00000090: 87a3 f2bc 0213 3bbd ae08 c93d 124c 083c
000000a0: e691 4d3c c01d 053c 776f 013d 9d67 13be
000000b0: bc60 05bc 68e6 c33b ecd9 663d 0c10 fabd
000000c0: cef1 37bb 63f9 19bc 5413 2dbe bf34 09ba
000000d0: 1b20 173c 18a7 c2bb 4095 c23c 544d 2abe
000000e0: 459c 24bd c267 d6bd 5918 ca3c 9038 5ebc
000000f0: c27a bc3a b08a 35bd 3a41 93bc 1e52 6f3d
00000100: f151 2bbd c024 29bc c9ee e13c 643a 1d3c
00000110: f5f6 733c 2e2f 583c ca2f 87bc 1d61 42bd
00000120: bd6c 8c3d 91ca c4bd 1eb7 22be 4e55 80bd
00000130: a10e c53d c3b5 0fbe a8ef e5bd 6519 68bc
00000140: e79f 2fbd 5cd5 5bbd a2e7 9c3d e904 9dbb
00000150: 9f4a 05bb c4c7 aabd e5f4 d7bd c5e6 08be
00000160: 2689 89bd c096 e3bd 5f23 81bd ee8d 983b
00000170: 0fa6 4a3c 7f32 34bd 3b24 42bc 817b 63bd
00000180: a91e 8b3c dd88 bd3c 9b77 da3d 7092 04be
00000190: 2fa1 ffbd b5c9 7b3d afb8 bcbd 9a75 8bbd
000001a0: 8d88 693d da8e d1bd e4c9 a4bd 0e9e 9dbc
000001b0: bfc0 01bd 75e8 803d 261e 89bd 8ab4 14be
000001c0: 555c 26bd d408 f0bd 3aa7 e63d b515 07be
000001d0: 20bf e93c be4c 07bd 3770 e63a 5719 5a3b
000001e0: 1c7e 793a 0407 5bbd bdb3 18be f4ca 983d
000001f0: 6f04 a43d 85a9 21bd 455d 48bc 3698 05bd
00000200: 5f98 c6bc 87a9 16be aa11 ce3c 2dd1 ae3d
00000210: 04f9 663b 515b 4ebd b617 853d ac6e eebd
00000220: 9312 5b3c d76f 883d c047 aa3c 1f51 ce3b
00000230: 3f6f cbbd e453 a2ba 4388 7dbc bec1 883d
00000240: d92f 563d 802c d1bc f757 243c 09a6 b8bd
00000250: 67b6 283c 6624 2a3c 7847 15bd 7a84 05be
00000260: c78e 8fbd b585 6cbd c297 17bd 1172 023a
00000270: c82b 92bd fded 223c 5298 a6bd 03bc fd3c
00000280: c637 21be e88e a8bd 9fbc c4bd 6ff8 b4bd
00000290: 64e8 97bd 58a4 1e3d 00f2 f93d 2a24 163d
000002a0: 8f9a 923b 7f09 afbd e20c 27bd 0c94 8ebd
000002b0: 96cb 90bd af48 fd3c b9ab 59bd d8f6 8e3d
000002c0: c7eb 06be c914 a5bd 5881 43bc 86a8 bebd
000002d0: 15be 1bbd 78c5 a13d 0845 a73d 9762 d13c
000002e0: 1bb7 b33d 59df c43d cc3f aabd 2d21 8bbd
000002f0: c78f 0e3d ac70 0ebe 3f84 4dbd 6459 c63d
00000300: 291a 1f3b 87e1 d4bd 9a01 4f3d 0367 26bd
00000310: f59f 14bc 73fe 44bd 9d39 36bd df15 6d3d
00000320: a00a 1b3c 1fac cbbd cb65 fc3c d8f8 be3c
00000330: 2de6 8ebd f6e7 90bd 7423 1a3d c2fd 873d
00000340: c7cb a23d 1e2a c0bd d5c2 963c b017 1d3c
00000350: 5395 c33c d79e f2bd 7a6f a33b 71de dcbd
00000360: a4d0 57bd 6ce6 25bd 6f92 efbc b6ec ed3b
00000370: bf19 923c 0a44 08bd 5c15 e3bb f2ab 8cbd
00000380: ae0e cfbc cb15 c23c ae03 04be e303 0cbe
00000390: 4ee2 0f3e 6ab5 bbbd 7675 e6bd 576b 14bd
000003a0: cc1f 6cbd 460f 04bd 17a6 a8bd b7e4 f53c
000003b0: 76f9 edbd 6e0b 04be b2bd 00be 2ee5 a0bd
000003c0: 27d3 463d f0f7 2bbd 4d62 fdbc 7717 39bd
000003d0: ab2c 4b3d fc4a c8bd 9d15 26bd 3075 cd3c
000003e0: 5f5a 083d 3c67 44bb c2e7 ea3c 49ad 243c
000003f0: e08c a9bd 0e81 6cbd 3196 523d dd0a c53c
0.041514713 0.035090353 -0.026765473 0.031162443 -0.058568753 0.058156956 -0.094286546 0.031370856
-0.02088807 0.026284548 -0.07700744 0.031268217 0.08125312 -0.018792536 -0.015360135 0.0069477404
-0.012649661 0.029957458 -0.1320024 0.020920446 0.028455287 -0.14568362 0.017559107 -0.017342282
-0.09752254 -0.052397437 0.08480721 0.051913004 -0.041312344 0.03611473 -0.004480344 -0.1089535
-0.00012352393 0.031579655 -0.09143745 0.0066780383 -0.029618992 -0.045672424 0.09816109 0.008318918
0.012546992 0.008124769 0.03160044 -0.14394994 -0.008140739 0.0059783943 0.05636017 -0.12210092
-0.002806771 -0.009397837 -0.16901904 -0.0005233995 0.009223963 -0.0059403293 0.023752809 -0.16631061
-0.040188093 -0.10469009 0.024669813 -0.01356329 0.0014379846 -0.044321716 -0.017975438 0.058427922
-0.041826192 -0.010323703 0.027579682 0.009596441 0.014890422 0.013194842 -0.01650228 -0.047455896
0.06856678 -0.09608949 -0.15890166 -0.062662706 0.09621931 -0.1403418 -0.112273514 -0.014166211
-0.042877104 -0.053670272 0.07661368 -0.004791845 -0.0020338667 -0.083388835 -0.10544757 -0.13369282
-0.06715612 -0.11112738 -0.063055746 0.004655591 0.012368693 -0.04399347 -0.011849458 -0.055537704
0.016982393 0.02313655 0.10667344 -0.12946486 -0.12481915 0.06147166 -0.09214913 -0.0680954
0.05701499 -0.10232325 -0.0804632 -0.019240405 -0.031677958 0.06294338 -0.066952035 -0.14521995
-0.0406154 -0.11720434 0.11262365 -0.13191874 0.028533518 -0.03303217 0.001758105 0.0033279264
0.0009517388 -0.053473487 -0.14912315 0.07460585 0.08008658 -0.039468307 -0.012229268 -0.032615863
-0.024242578 -0.14713107 0.025154907 0.08535991 0.003524364 -0.050380055 0.06498663 -0.11642203
0.013371128 0.06661957 0.020786166 0.0062962915 -0.09933328 -0.001238462 -0.015474382 0.066775784
0.052291725 -0.025533915 0.010030738 -0.09016044 0.010297394 0.010384655 -0.03644511 -0.13038817
-0.070096545 -0.0577447 -0.037009962 0.00049761037 -0.07137257 0.009944436 -0.081345215 0.03097344
-0.15743932 -0.08230382 -0.09606289 -0.088364474 -0.07417372 0.03873095 0.12204361 0.036655582
0.004473991 -0.08546733 -0.04078377 -0.069618315 -0.07070081 0.030918447 -0.053142283 0.069806755
-0.1317588 -0.08060605 -0.011932693 -0.09309487 -0.038023073 0.07898992 0.081674635 0.025559707
0.08775159 0.09612913 -0.083129495 -0.06793437 0.034805086 -0.13910168 -0.050174948 0.09685019
0.0024277067 -0.103945784 0.050538637 -0.040625583 -0.00907134 -0.048094224 -0.044488538 0.057882186
0.009462982 -0.09944939 0.030810257 0.023312017 -0.06977496 -0.07075493 0.037631467 0.06640197
0.07949024 -0.09383033 0.01840345 0.009588167 0.023874914 -0.118467025 0.0049876543 -0.10784615
-0.05268921 -0.04050295 -0.02924463 0.007260884 0.017834542 -0.033268012 -0.0069300365 -0.068687335
-0.025275555 0.023692032 -0.12892029 -0.13673358 0.14051172 -0.09165461 -0.11252873 -0.03623518
-0.05764751 -0.03224113 -0.08234804 0.030016286 -0.116198465 -0.12894985 -0.12572363 -0.078562126
0.048541214 -0.0419845 -0.030930663 -0.045188393 0.049603146 -0.09779927 -0.040547956 0.025080293
0.03328931 -0.002996876 0.028674964 0.01005108 -0.08278823 -0.057740264 0.051412765 0.024053032

network.6.weight f4 [256]
00000000: 68a7 7c3f daca 823f 2aab 7d3f 7ac4 803f
00000010: 980a 793f 8741 7e3f 263a 813f 4f0c 763f
00000020: 612f 813f af7a 803f 2d33 853f dadd 7f3f
00000030: abaa 763f ddbe 793f 4c31 7e3f b10d 723f
00000040: bd3c 803f 9096 753f 826c 803f 55b2 833f
00000050: 9869 833f 3dc0 853f 3f89 743f 1b55 7c3f
00000060: 9a4c 7c3f dffd 7c3f 9196 783f 13ac 7c3f
00000070: bbf1 823f 2cfb 763f bf4c 843f e6e3 783f
00000080: 6661 793f 2d15 703f 5718 853f cf52 783f
00000090: c121 853f 7da5 7b3f 1203 743f ac15 7a3f
000000a0: 8661 803f 30cc 7f3f 69c1 7c3f a801 803f
000000b0: e543 803f 3f1e 733f 8258 7f3f d4ad 803f
000000c0: 6ef9 783f 622d 7c3f 2c99 823f 2769 803f
000000d0: e7b9 7c3f 1606 783f 58b2 7f3f e91f 833f
000000e0: 22c4 753f 57c8 7b3f 5a4d 7f3f 9a47 843f
000000f0: 9afd 7f3f bc50 743f 4bc3 783f cbca 813f
00000100: 3afe 703f 1068 813f 2c05 7f3f cc2d 803f
00000110: f39f 813f 39c3 7f3f 8e9f 813f 964e 773f
00000120: 82db 823f 5ea8 7e3f 82e6 733f e2c5 803f
00000130: 33a7 723f d8f2 7f3f 079f 843f c8e6 773f
00000140: fa06 7b3f 792f 7c3f 62b0 7d3f 1816 7d3f
00000150: cd0c 813f 5520 753f 07b8 813f 4b46 763f
00000160: 59a5 7e3f c1ff 7a3f 98f9 7f3f d11d 783f
00000170: 0d36 753f 039e 803f 5ddd 7f3f d5b7 763f
00000180: ac54 7d3f 85b4 7f3f 3001 823f f408 7b3f
00000190: 078e 823f f314 7c3f 40e0 7a3f 9598 763f
000001a0: 6741 7d3f c9df 7a3f d926 6c3f f879 7a3f
000001b0: bb61 823f d8e1 7c3f 3a56 803f e27d 7f3f
000001c0: 0a09 813f be07 7e3f bb85 753f 1f0f 803f
000001d0: 02e6 7b3f 18a4 7f3f 6ff8 7a3f 6593 783f
000001e0: 1a74 753f 9846 723f e299 7f3f 9aa5 7c3f
000001f0: a911 813f 74a7 753f 6651 803f e154 7c3f
00000200: 5bb6 753f b532 793f 8788 7a3f 3b9a 823f
00000210: 5d2c 743f e4d2 803f 43be 7d3f 33cd 763f
00000220: 4936 7d3f cc34 7d3f ca5e 7c3f 0764 7b3f
00000230: 4181 803f 4bab 853f cdea 7d3f 160e 6c3f
00000240: 947a 843f 61b3 813f 0006 813f 67ee 7c3f
00000250: 9968 7b3f a5c7 803f 69f8 793f fbf4 763f
00000260: c3a7 803f 6065 813f a0f6 773f 8f53 7d3f
00000270: 3be8 7f3f 0af3 783f 53d8 7d3f 7644 803f
00000280: 784c 7b3f 5855 803f 23cd 823f 987b 7d3f
00000290: 156d 833f 0491 6e3f 7d2f 833f dfb0 6e3f
000002a0: 4348 7d3f 3d5b 813f f1bd 723f d937 813f
000002b0: 76bc 7c3f 9ca2 6d3f 4ad0 823f 0c46 783f
000002c0: 020b 813f 2bf0 7d3f f7d7 803f a1a2 7b3f
000002d0: 7784 843f 7683 783f 3b77 7b3f d9f9 7d3f
000002e0: 0879 793f 9f1f 7f3f 40a0 793f 6371 703f
000002f0: 4c4c 7d3f d08c 803f 55d7 713f ff37 803f
00000300: 1ab6 7d3f 780b 793f 260e 7a3f dd7c 763f
00000310: 4f31 7e3f 2f96 7a3f c8b0 823f be07 803f
00000320: 6152 753f 2774 773f 2422 7b3f 02f6 793f
00000330: a3bb 773f 6660 783f d8a3 7c3f b409 7e3f
00000340: 5b0c 7f3f b022 783f 6d1f 7f3f e669 7c3f
00000350: 04c0 6c3f a864 783f 6adb 833f d4b1 7b3f
00000360: f4a0 7f3f 5fe3 7d3f 94e1 7c3f 48be 823f
00000370: 7dd3 7c3f 2aab 703f 53ec 7c3f f2b9 783f
00000380: fe79 7c3f 0cc6 7b3f ca95 7b3f f3a7 783f
00000390: a7c7 703f 0e32 773f 0ad9 803f dea1 833f
000003a0: 59cb 773f 3ec0 773f ec7e 7f3f c656 813f
000003b0: 58f3 793f 2c82 843f 4861 813f 29f7 803f
000003c0: 7721 7e3f 644b 803f 45fb 793f 5dd6 843f
000003d0: 6248 7d3f f278 833f 0707 833f 6e9e 753f
000003e0: 186a 813f ddef 863f 9ce9 7c3f a724 7f3f
000003f0: ddfe 7e3f fd05 7d3f 8510 743f 92d8 813f
0.9869294 1.0218155 0.990893 1.005996 0.9728179 0.99318737 1.009587 0.9611253
1.0092584 1.003744 1.0406243 0.99947894 0.9635417 0.9755686 0.9929397 0.9455214
1.0018536 0.95932865 1.0033114 1.0288798 1.02666 1.0449291 0.9552192 0.9856736
0.98554385 0.98824877 0.97104746 0.98700064 1.023002 0.9647701 1.0335921 0.97222745
0.97414243 0.9378231 1.0398053 0.97001356 1.0400926 0.9829939 0.95317185 0.9768932
1.0029762 0.9992094 0.9873262 1.0000505 1.002072 0.94968027 0.9974443 1.0053048
0.972556 0.9850675 1.0202994 1.003209 0.98721164 0.96884286 0.99881506 1.0244113
0.960024 0.9835257 0.99727404 1.0334351 0.9999634 0.9543569 0.97172993 1.0140013
0.9413792 1.0109882 0.99617267 1.0013976 1.0126938 0.9990726 1.0126817 0.9660429
1.0223238 0.9947566 0.952736 1.0060389 0.94786376 0.99979925 1.0361031 0.9683652
0.9805752 0.9850994 0.99097264 0.9886184 1.0082031 0.9575246 1.0134286 0.9620101
0.9947105 0.980465 0.99990225 0.96920496 0.957856 1.0048221 0.9994715 0.96374255
0.98957324 0.99884826 1.0156612 0.98060536 1.0199593 0.98469466 0.9799843 0.9632657
0.9892792 0.9799772 0.92246777 0.9784236 1.0186075 0.9878211 1.0026314 0.99801457
1.0080884 0.99230564 0.9590718 1.0004615 0.9839784 0.9985976 0.9803533 0.97099906
0.9588028 0.9463897 0.9984418 0.9869019 1.0083514 0.9595864 1.0024841 0.98567015
0.9598138 0.97343 0.97864574 1.0203317 0.95380193 1.0064359 0.9911844 0.9640686
0.9891096 0.98908687 0.98582137 0.98199505 1.0039445 1.04429 0.991864 0.92208993
1.0349908 1.0132867 1.0079956 0.98801273 0.9820648 1.0060927 0.9764467 0.9646756
1.0051197 1.0109062 0.96860695 0.98955625 0.9996373 0.9724585 0.9915821 1.0020893
0.9816356 1.0026045 1.0218853 0.99016714 1.0267664 0.93190026 1.0248867 0.93238634
0.9893839 1.0105969 0.9482108 1.0095168 0.9872507 0.9282625 1.0219815 0.96981883
1.0081484 0.9919459 1.0065907 0.98295027 1.0352925 0.97075593 0.98228806 0.9920936
0.97450304 0.99657625 0.9751015 0.93923014 0.98944545 1.0042973 0.94469196 1.0017089
0.9910599 0.97283125 0.9767784 0.96284276 0.9929399 0.9788541 1.0210199 1.0002363
0.95828825 0.9666161 0.9809897 0.97641003 0.96770686 0.9702209 0.98687506 0.99233556
0.9962823 0.9692793 0.99657327 0.9859909 0.9248049 0.9702859 1.0301335 0.9831822
0.9985497 0.99175066 0.98781705 1.0214319 0.98760206 0.94011176 0.987981 0.9715873
0.98623645 0.9834907 0.98275435 0.9713127 0.94054645 0.9656075 1.0066235 1.0283773
0.9679466 0.96777713 0.9980304 1.0104606 0.9763694 1.0352225 1.0107813 1.0075427
0.99269813 1.0023007 0.9764903 1.0377918 0.9893857 1.0271285 1.023652 0.9594487
1.0110502 1.054195 0.9879396 0.996653 0.9960764 0.9883726 0.95337707 1.0144217

network.6.bias f4 [256]
00000000: a656 92bd 6b63 3a3c daa1 f7bd af2a b0bd
00000010: bd24 36bd da68 9ebd 591f a53c 7b9c 44bd
00000020: 596b abbd e178 d93d fea4 d7bd 2f4a 53bd
00000030: 1261 18bd 4804 083c 9f98 cc3b ae44 d6bc
00000040: 84b3 a7bc 94fe 213d cafe 48bd 7d22 a4bd
00000050: 3edf 31bb 3209 843d ff8e 9d3d 2168 ef3d
00000060: 997f 633d f713 02be dc0d 273c 2d9e fabc
00000070: e8bd fbbc dc63 c8bd 2a9a b8bd 104f 8e3c
00000080: e0b2 77bd 66dc 8cbb 1a98 4f3d 1825 3bbd
00000090: e350 38bd 55e1 6a3d 4846 023d e4e0 53bd
000000a0: 1bae a4bd ea58 afbd 7e66 23bd 1a41 0bbd
000000b0: 8455 0cbd cf6d 02bd fbf3 f0bd 2fe4 5bbc
000000c0: 41cb 7fbd 5381 563d c6b3 6cbd 8e8c c43c
000000d0: 82fe 8c3d 716e 903c d554 85bd 1edb 5bbc
000000e0: 44dc 1c3d aa0c afbd 777a 5ebd 268c eabd
000000f0: e940 9abd 8a43 7c3d d5f0 bebd 764e b9bc
00000100: 886d 0dbc 0e75 b43c 696c 7e3c 0706 a6bd
00000110: 3125 efbc 172f 003c 3719 bdbd 4e47 be3d
00000120: 7a50 fd3b 6154 1f3c 2889 87bd ab69 94bd
00000130: be81 a53b e66f c2bb 52cc d7bd 733a a1bb
00000140: 090b debc 2118 aebd f967 26bc 5777 3d3d
00000150: 2b69 3cbd dd62 75bd b765 c0bd 9ec3 8bbd
00000160: e647 97bd f4b3 05be b39a 2dbc a1ab 62bd
00000170: e615 cd3d d479 303d 4268 ae3d 2f8f 983d
00000180: c383 243d 6e25 673c 1801 56bd 1211 7cbc
00000190: 1779 30bd 9bb9 57bd 0deb 3f3d 3706 363d
000001a0: 405e 883d 10a0 8a3d 2d74 00be f497 913c
000001b0: 1a57 d03d ba25 bfbd 2457 9f3c 36b6 e5bd
000001c0: 83fd c3bd 9354 a7bd 4101 823c 1a72 c2bd
000001d0: 1d62 19bb 4e86 8ebd 0005 ccbd 869e 9abd
000001e0: 06c1 133d 4828 9a3d 7842 44bd 09ce 5bbd
000001f0: 5199 f5bd 501a 88bd 6d4a 3fbc fc89 8e3c
00000200: 69b8 c8bd bf1e 1f3c 0889 f43c a11c 2bbd
00000210: 27bc ae3d e18a 98bd 8af0 77bd f3cd 34bd
00000220: 0b3f 30bd f033 ddb7 a062 8dbd 8884 393c
00000230: 9884 01bd 1070 5a3d 26f5 03bd 883c 973c
00000240: 9a7e 65bd 6f53 20bd e0f0 d13c 0e20 e9bc
00000250: d034 05bd 547d c3bd 044b acbd 1375 06bd
00000260: 9ade 5fbd c100 c63c 4208 4bbd 0c90 d5bd
00000270: c943 ab3c 7b92 9d3d 68f7 b8b7 89fb 43bb
00000280: 30b7 913b fab8 26bd 9bd3 373d ac64 c93d
00000290: 105c b4bd 2283 4cbd 768d 47bc 109c 05bd
000002a0: f777 373d a9ef 7cbd 2c2e 28bd 2b1d 69bd
000002b0: 6db0 debb 9dc4 91bb 5f7a b83c 752b 10bd
000002c0: af1f ffbd 886a ca3b 9d8c 7bbd bb9c 51bd
000002d0: b085 0a3d c58e 5f3d 24ed 70bd dd5c 093d
000002e0: 8327 4a3d b516 873d 5f34 85bd 4e53 a7bd
000002f0: 003d 9ebc 4ab9 82bd 59bd 053d 7cb9 95bd
00000300: eba1 94bc 478e f3bc b0ba c93c ed2a e43c
00000310: b146 1cbd ee26 253d 65e0 06be fe91 42bd
00000320: b75e 24bd 6d72 67bc 729e afbc 9379 92bc
00000330: f689 b43b a3af d1bc 4f97 efbb 943e 433d
00000340: 4511 69bc 53d0 e4bd a050 efbc dcb1 bf3b
00000350: 36d1 00bd c09a d6bc 8418 48bd 4579 9ebd
00000360: 3bef a43d 4b47 3ebd fa25 46bd 49dc f7bd
00000370: 9c60 e6bc 9c8e 6d3c 4f1f 87bd cc46 72bd
00000380: 8ffd a7bc 3a26 a43c bc52 803d c262 e0bc
00000390: db2c 76bc 572a c6bd 914e 1bbb 5070 9abd
000003a0: 5f2c 6ebd 901d f43b 7bbb 1b3c 9e35 403d
000003b0: 7712 6e3d 5f86 49bd 99d7 62bd 94e5 19bd
000003c0: b86b f03c 782d 653b 126c c2bc 77e8 dabc
000003d0: 21b8 f4bd b4a4 57bd cbef ec3d e555 02bd
000003e0: 88d7 ffb8 95fc 73bd 188c 9e3d 44c2 1fbd
000003f0: 3287 17bc ec46 48bd f367 b73d d2a8 1139
-0.07145433 0.011376242 -0.120914176 -0.08601891 -0.04446863 -0.077348426 0.02015655 -0.048000794
-0.08370084 0.10618759 -0.10529517 -0.05158442 -0.03720195 0.008301802 0.00624378 -0.026155796
-0.020471342 0.039549425 -0.04907111 -0.080143906 -0.002714112 0.06447066 0.0769329 0.11689783
0.05554161 -0.12702928 0.010196175 -0.030593002 -0.030730203 -0.09784672 -0.090137795 0.017371684
-0.060473323 -0.0042987345 0.050682165 -0.045689672 -0.044999015 0.0573438 0.031805307 -0.051728144
-0.080410205 -0.08561881 -0.039892666 -0.033997633 -0.03426124 -0.031843003 -0.117652856 -0.013421102
-0.062449697 0.052369427 -0.057788633 0.023992803 0.06884481 0.017630788 -0.06510321 -0.013418941
0.038296 -0.08547337 -0.05431601 -0.114525124 -0.07531912 0.061587848 -0.09323279 -0.02262042
-0.008632071 0.022028472 0.015528777 -0.081066184 -0.029192539 0.007823727 -0.09233325 0.09290944
0.007730541 0.009724707 -0.06617957 -0.07246717 0.005050867 -0.0059337495 -0.10537018 -0.004920298
-0.027104871 -0.08500696 -0.010156625 0.04625639 -0.045998733 -0.059908736 -0.093944006 -0.068244204
-0.073867604 -0.13056928 -0.010595965 -0.05533946 0.100139424 0.043084934 0.08515979 0.07449185
0.04016472 0.014108045 -0.052247137 -0.015384929 -0.04308423 -0.05266724 0.04685502 0.04443952
0.06658602 0.06768811 -0.12544318 0.017772652 0.10172863 -0.09333368 0.019450732 -0.112163946
-0.09569838 -0.08170428 0.015869739 -0.094944194 -0.0023404427 -0.0695921 -0.09961891 -0.07549767
0.036072753 0.07527214 -0.047914952 -0.053663287 -0.119921334 -0.06645644 -0.011675459 0.01739978
-0.098007984 0.00971192 0.029850498 -0.04177535 0.08531981 -0.07448364 -0.06053213 -0.04414172
-0.043028872 -2.6369438e-05 -0.06903577 0.011323102 -0.031620592 0.053329527 -0.032216214 0.01846148
-0.05602894 -0.03914207 0.025627553 -0.028457668 -0.03252107 -0.09545389 -0.084127456 -0.032826494
-0.05465565 0.024170281 -0.049568422 -0.104278654 0.020906346 0.076939546 -2.2049717e-05 -0.0029904565
0.0044468865 -0.04070375 0.044879537 0.09833655 -0.08806622 -0.049929745 -0.012179723 -0.032619536
0.04479214 -0.061751995 -0.041059658 -0.056912582 -0.006795934 -0.004448487 0.022519289 -0.035197694
-0.12457215 0.0061772503 -0.061413396 -0.05117486 0.0338189 0.054579515 -0.058819905 0.033535827
0.049354088 0.06596128 -0.065041296 -0.08170186 -0.019316196 -0.06382997 0.03265128 -0.07310769
-0.018143615 -0.029730929 0.024625152 0.0278525 -0.038153354 0.04032033 -0.13171537 -0.04750251
-0.04012939 -0.014126402 -0.021437857 -0.017880237 0.0055096103 -0.025596445 -0.0073117386 0.0476671
-0.014225309 -0.11172547 -0.02921325 0.00585006 -0.03144952 -0.026196837 -0.048851505 -0.07737974
0.08053442 -0.04645471 -0.04837606 -0.12102563 -0.028122239 0.014499333 -0.065977685 -0.05914955
-0.020506648 0.02003776 0.0626578 -0.027390841 -0.015025343 -0.096760444 -0.0023697952 -0.07540953
-0.058147784 0.007449813 0.009505148 0.046926133 0.05812308 -0.049200412 -0.05538139 -0.03757246
0.02934824 0.0034969728 -0.023733173 -0.026722176 -0.11949182 -0.052647308 0.115691744 -0.031820197
-0.00012199493 -0.059567053 0.077415645 -0.039003626 -0.009248542 -0.04889576 0.089553736 0.00013891168
