assist_model.pt (torch, 31057 bytes, 6 tensors)

fc1.weight f4 [32, 64]
000000 34 08 42 be 40 b9 ce bd c3 52 15 3f cf 7f 05 bd
       -0.18948442 -0.100939274 0.5832941 -0.03259259
000010 11 f8 5d 3d f6 a3 b2 bc 39 6c d3 bd 7b ac d3 3e
       0.054191653 -0.021806698 -0.10323376 0.4134253
000020 bb c7 cd bc 07 83 33 3d 7b da 1c be a6 31 95 3d
       -0.025119653 0.04382613 -0.15317719 0.0728486
000030 a7 41 a3 3e 6d 0d 3e 3e bb 78 fc 3d 33 76 a4 bd
       0.31886026 0.18559809 0.12327715 -0.08030357
000040 45 15 90 3d 12 58 1b bd 67 5b 93 3d 4c 76 e1 bc
       0.07035307 -0.037925787 0.07195168 -0.027522229
000050 04 80 6a bd 6d 73 95 3d b3 24 b1 bd e6 51 5f 3e
       -0.05725099 0.07297406 -0.08649578 0.21808586
000060 d5 3b ca bc 86 8e 47 bd 66 eb 0f 3e 08 fb 7d be
       -0.024686733 -0.048719905 0.14054641 -0.24802792
000070 d9 da 2a 3e d6 1d bb bc c4 08 03 bd 56 6c 0b 3e
       0.16685046 -0.022841375 -0.03199078 0.13615546
000080 31 b4 06 3d d5 2e 22 be 06 af 06 3d b2 ac 9b be
       0.032886688 -0.15838178 0.03288176 -0.30405194
000090 02 25 2b be 8f 70 e7 3d 2a a6 10 be 09 80 8d bc
       -0.16713336 0.11300766 -0.14125887 -0.017272966
0000a0 2d f8 9e bc 93 14 eb 3d 25 51 3b be ee 49 6b bc
       -0.019405449 0.114785336 -0.18292673 -0.014360888
0000b0 f7 21 21 bd 59 cd ae 3d 08 55 ac 3e 92 4d a8 3b
       -0.039339032 0.08535261 0.33658624 0.0051362
0000c0 8e 66 d4 3d 7c 6a 67 bc 82 1a 8f be c3 44 ac 3d
       0.10371123 -0.014124509 -0.2794991 0.08411553
0000d0 26 f0 55 bd 63 e4 8c be 8b 8c ea 3d 6b 5c 7c 3e
       -0.052230977 -0.27517995 0.11452588 0.2464463
0000e0 82 77 47 bd a5 18 23 3e 6d a2 aa be 71 ee 95 3e
       -0.048697956 0.1592737 -0.33327046 0.2928348
0000f0 c6 af 9f 3e 56 d7 2c 3e e4 63 a5 3e 69 e9 fa 3d
       0.31188792 0.16879019 0.32302773 0.12251551
000100 84 7c 1e 3d cf c9 c3 3d e8 77 fe 3d 8d 66 35 3d
       0.038692966 0.09559976 0.12425214 0.044287253
000110 9a c0 24 bd b3 68 fb 3e 8c ed 0b 3e 2c 52 cc 3e
       -0.04022274 0.49103317 0.13664836 0.39906442
000120 b8 51 3d 3a b2 cd 9a bb c4 5f e5 3d 7e 9a b5 3c
       0.0007221955 -0.004724228 0.111999065 0.022168394
000130 ea d0 77 be 88 ce 17 be af d1 99 be 05 bd 0c bc
       -0.24200788 -0.14824879 -0.30042788 -0.008589988
000140 86 03 6b bd 5b 3b e1 bd 33 a5 fd 3d 5a 6d 5f bc
       -0.057376407 -0.10997649 0.12385025 -0.013636911
000150 61 2b 85 3d ea cf 8e bc e9 86 4e bd fa a5 69 bc
       0.065024145 -0.017433126 -0.05042163 -0.014260763
000160 8f 6b 41 3e 18 e8 da 3d 41 26 23 3d eb 74 ff bd
       0.18888687 0.106887996 0.039831404 -0.12473472
000170 ad 4a 4e 3e 9d f7 d2 bc 1a 22 9c 3e b6 12 40 3e
       0.20145674 -0.025752837 0.30494767 0.18757138
000180 6c 78 c5 bd ba 62 58 3d 88 9e 65 3b 2d 1e fa bd
       -0.09642109 0.052828528 0.003503712 -0.12212787
000190 65 89 2a bd d6 69 c5 bc 05 b2 81 be 4b 62 b8 be
       -0.041634936 -0.024098318 -0.2533113 -0.36012492
0001a0 7c e2 c8 3e 32 ac 1e 3e 48 ce e8 bd e4 4c 70 bd
       0.39235294 0.15495375 -0.1136747 -0.05866708
0001b0 c9 0b a5 bd f8 a4 fe 3c 4e ab 5c 3c a5 b1 a7 bd
       -0.080588885 0.031084523 0.013468577 -0.0818818
0001c0 a5 f3 62 be e8 b1 fb 3d f4 54 cc 3e dc ce 21 be
       -0.22163256 0.12289792 0.39908564 -0.15801567
0001d0 6b bc 25 3d 23 c2 2b be 7b 57 35 bc fd c3 93 bd
       0.040462893 -0.16773276 -0.01106822 -0.07215116
0001e0 d6 60 39 be df 03 b1 3e 93 da 83 3e 3b 7b 15 3e
       -0.18103346 0.34573266 0.25752696 0.1459779
0001f0 b1 ab ed bd 4b 28 73 3e 78 de aa bd a4 98 67 bd
       -0.11605013 0.2374584 -0.08343214 -0.056542054
000200 48 c8 ea ba a6 8b e7 3e 92 66 b9 bd 23 82 9f 3d
       -0.0017912472 0.4522373 -0.09052767 0.077884935
000210 87 15 3b be 73 45 0b be 1e ae 6e be 57 4b 79 be
       -0.18269931 -0.13600712 -0.23308608 -0.24345146
000220 9c ad a5 be 42 77 88 bd 46 29 b9 3a 61 ba 44 3e
       -0.32359016 -0.066633716 0.001412668 0.19211723
000230 38 93 59 be cd 80 0a 3d b1 74 ef bd db f0 54 3d
       -0.21247566 0.03381424 -0.11692179 0.05198751
000240 1a d6 81 3e 60 bc 61 be 10 6e b0 bb ff 11 f2 bc
       0.2535866 -0.22044516 -0.005384214 -0.029549597
000250 c9 a5 56 bd 16 18 30 3e de 35 96 be f7 d7 59 be
       -0.0524042 0.17196688 -0.29337972 -0.2127379
000260 95 95 05 be 62 64 ed bd 04 0a 01 3e 43 5b 8e bd
       -0.13045342 -0.11591412 0.12601477 -0.069510005
000270 1d d9 d2 3c 2e 5f 6f 3e ae 23 18 3d 04 c7 c9 3d
       0.025738293 0.23376152 0.0371434 0.09852412
000280 35 31 3b be 4e 76 03 be 24 65 4c 3d 92 1f 74 3c
       -0.1828049 -0.12838098 0.049901143 0.014900105
000290 dc 79 83 3d ea 37 20 3e 1a 2f e0 bd b2 4b 01 3e
       0.06419727 0.1564633 -0.10946484 0.12626532
0002a0 c8 d3 ab 3e fd 9e 83 3d 6e f3 7f bd e6 0b b6 3d
       0.33560014 0.06426809 -0.062488012 0.08888988
0002b0 5c d8 4c bd 7d 0f 26 bc 2d 53 1a bd 72 bc fa 3d
       -0.050011024 -0.010135529 -0.03767698 0.12242974
0002c0 04 b3 15 3d 76 32 10 3e 4b eb 8b bb 63 47 b3 bd
       0.036547676 0.1408175 -0.0042699925 -0.0875385
0002d0 a6 c8 1d bd 36 8f 0e be 74 31 26 bd 7b f3 57 bd
       -0.03852143 -0.13921818 -0.040574506 -0.052722435
0002e0 a3 77 7f bd 2f f3 88 bd 3c b9 31 3e b8 7a bf 3d
       -0.062369954 -0.066870086 0.17355818 0.093495786
0002f0 f8 56 1c 3e 66 c7 d6 bd 7a f2 65 bd 90 75 9e bd
       0.15267551 -0.10487251 -0.056139447 -0.07737267
000300 20 94 14 3e 90 60 8d 3d 1c 0f bc bc a7 da 81 3e
       0.1450963 0.069031835 -0.022956423 0.2536213
000310 e7 2c 54 bc f4 09 59 bd ff 1d 85 3d b5 8d 11 3d
       -0.012950159 -0.052988008 0.06499862 0.035535533
000320 91 c3 9c 3d 13 fa ab 3d 02 8a 0d 3e 30 67 22 3e
       0.07654489 0.08397307 0.13822177 0.15859675
000330 ef 0f fc bd 06 c6 67 3e e3 df 9e 3e ff 07 5b 3d
       -0.123077266 0.22634134 0.31030187 0.053474423
000340 d3 7a 2f 3e 0f 5d 20 3d 10 44 4e 3e 45 9a 3a 3e
       0.17136697 0.039151248 0.20143151 0.18222912
000350 03 f1 aa 3d d0 da a1 be ef d9 90 3c 54 9c a5 bc
       0.083467506 -0.31612253 0.017682044 -0.020216145
000360 e2 84 84 3e 47 aa 16 3d b9 34 98 bd 0b 58 05 3e
       0.25882632 0.036783483 -0.07431931 0.13021867
000370 3f 0e 4d 3d 53 df 4e 3e 94 73 60 3e 86 27 9f 3d
       0.050062414 0.20202379 0.2191909 0.0777121
000380 d5 62 d8 bc 05 71 b0 3e fa da 12 3e d7 74 65 be
       -0.026414314 0.34461227 0.14341345 -0.22407852
000390 9c 1f 84 bd 98 3b a6 3d 9e ca 16 be e2 4e 87 3e
       -0.064513415 0.08116835 -0.1472573 0.2642737
0003a0 e2 c0 e7 3d 03 ca 04 be 3e 03 f2 bd 5b e7 af be
       0.11316086 -0.12967686 -0.11817025 -0.34356198
0003b0 d9 e8 96 be 05 bd bb bd 8e c6 08 bf 7a 34 85 3e
       -0.29474524 -0.09166912 -0.5342797 0.260166
0003c0 23 4e 75 be 4b 3e 02 3e 05 31 f2 bd 3e 5d 61 3d
       -0.23955588 0.12719075 -0.11825756 0.055020563
0003d0 9d f2 e6 be 7a 87 c7 3e 13 a1 05 3e d7 c4 89 3e
       -0.45106974 0.38970548 0.13049726 0.2690799
0003e0 fa 50 5f 3e 2b ad ae be e9 5d 49 3e b2 4c 61 3d
       0.21808234 -0.34116492 0.1966473 0.055004783
0003f0 e7 47 9d bd c6 cc 3a be 81 81 87 bd 25 38 86 3e
       -0.0767973 -0.18242177 -0.06616498 0.2621471

fc1.bias f4 [32]
000000 f8 a2 a6 3c be ae 23 bd a2 9b 0a be be 9a dd bc
       0.020341381 -0.03996157 -0.13535932 -0.027051326
000010 ca ed 02 bd 90 38 c0 3b 14 f6 8f 3d e7 0b c6 3c
       -0.031965055 0.005866118 0.070293576 0.024175597
000020 08 33 bc 3d 7b 37 27 3d a0 25 a7 bc 27 cb 04 bd
       0.09189421 0.040824395 -0.020403683 -0.032420304
000030 cc 08 e8 bd ec 14 a0 3c 05 ed e0 3d f4 1d 01 3d
       -0.11329803 0.019541226 0.10982708 0.031522706
000040 1d a1 53 bc 64 1f 84 3c 81 90 c1 3d 05 1b ac bd
       -0.01291683 0.01612825 0.0945139 -0.08403591
000050 ac 9c af bd b7 f6 bb 3d ce c2 c2 3b 20 1d 04 3e
       -0.08574805 0.091779165 0.0059436327 0.12901735
000060 37 6f 01 3c 68 30 99 ba 15 bb 8e bc aa f4 ef 3c
       0.007900051 -0.00116874 -0.017423192 0.02929147
000070 5b 10 c1 3c 40 ed a9 bc 7d fd 77 bd 09 56 22 bd
       0.02356737 -0.020743012 -0.06054448 -0.03963283

ln1.weight f4 [32]
000000 27 4f 84 3f 57 8e 85 3f c5 a7 84 3f 2c a5 85 3f
       1.0336655 1.0434064 1.0363699 1.0441031
000010 c5 7a 84 3f d3 d5 83 3f 7e b2 84 3f b3 6f 83 3f
       1.0349966 1.0299629 1.0366971 1.0268463
000020 5b a1 85 3f d7 68 85 3f eb 98 85 3f 7f a0 85 3f
       1.0439867 1.042262 1.0437292 1.0439605
000030 14 a4 83 3f 9b bb 85 3f 60 ab 84 3f 5a 50 84 3f
       1.0284448 1.0447878 1.03648 1.0337021
000040 59 87 85 3f 78 90 85 3f ef e1 83 3f bd b6 84 3f
       1.043193 1.0434713 1.0303324 1.0368267
000050 f5 6f 84 3f 11 6d 84 3f a0 8f 85 3f 89 85 84 3f
       1.0346667 1.0345784 1.0434456 1.0353252
000060 d0 8c 85 3f 24 ad 83 3f 6c 8b 84 3f 32 c5 84 3f
       1.0433598 1.0287213 1.0355048 1.0372679
000070 d5 85 84 3f 35 6e 85 3f 5c 9b 85 3f 71 a8 84 3f
       1.0353342 1.0424258 1.0438037 1.0363904

ln1.bias f4 [32]
000000 6e e1 31 3d e6 17 38 3d 35 95 31 3d fd ae 0d 3d
       0.043427877 0.044944666 0.043355186 0.03459071
000010 08 6d 32 3d 85 15 b4 3c 1b f0 13 3d 70 68 0e 3d
       0.04356101 0.021982918 0.036117654 0.034767568
000020 d1 99 2e 3d 5f 85 33 3d d5 3d 33 3d b4 bd 33 3d
       0.04262716 0.043828364 0.04376014 0.043882087
000030 84 ee 9a 3c 9f aa 39 3d 85 60 34 3d a2 7f 10 3d
       0.018912561 0.045328733 0.04403736 0.03527797
000040 43 e0 38 3d 3e 0d 0d 3d ae 25 01 3d 51 74 33 3d
       0.045135748 0.034436457 0.031530075 0.0438121
000050 0d d9 0e 3d a8 3e 17 3d 97 74 34 3d 12 5c 36 3d
       0.034874965 0.036924988 0.0440565 0.0445214
000060 89 53 37 3d 91 ec 05 3d f5 4a 17 3d bd 3f 0a 3d
       0.0447574 0.03269631 0.03693672 0.03375219
000070 3e 62 18 3d 5a c3 33 3d 65 1b 13 3d eb 47 06 3d
       0.037203066 0.043887474 0.035914797 0.03278343

fc2.weight f4 [147, 32]
000000 69 73 36 3d d0 b6 89 bd a8 08 e3 3c b3 8a 5f bd
       0.044543657 -0.06724322 0.027714089 -0.054575633
000010 ac dd 2b bd 50 29 aa bb 0a aa f5 3c d6 b2 80 bd
       -0.04195945 -0.005192913 0.029988308 -0.0628411
000020 76 e7 36 3d ac 4d 7c bd 10 97 12 3d 44 4e 28 3d
       0.044654332 -0.06159751 0.035788596 0.041090265
000030 16 45 45 3b 62 85 70 bd 22 79 70 bd a5 47 5d bd
       0.0030100993 -0.058720954 -0.05870927 -0.054023404
000040 2f 83 50 bd 90 73 3e bd 1d b0 64 bd c5 0f ae bc
       -0.050906356 -0.046496928 -0.055832017 -0.021247754
000050 d4 fe 3e bd 3e e8 3f 3d 53 9d 00 3d 27 c0 40 bd
       -0.04662974 0.046852343 0.031400036 -0.04705825
000060 f2 74 23 bd ab ba 11 bd 9f f3 3b 3c 3e ff 04 bd
       -0.03990645 -0.03557841 0.011471658 -0.03246998
000070 45 a8 30 bd 07 5e 7e bd 3d 11 01 3d 5f f0 2a 3d
       -0.043129224 -0.06210139 0.03151058 0.041733142
000080 8f b8 69 3d 58 3a 60 bd 31 18 55 bd d2 c0 48 3d
       0.057060774 -0.05474314 -0.052025024 0.049012013
000090 d9 54 ef 3c d4 6c a0 bb 23 60 aa 3c 3f 04 25 bd
       0.029215263 -0.004895786 0.020797795 -0.040287253
0000a0 e7 06 25 3d a4 fe 1f bd 0e 5e 50 bd 43 8b 05 3d
       0.040289786 -0.039061204 -0.050870948 0.032603513
0000b0 a2 75 a1 bc c9 77 86 bd 38 4d 2a 3d ee 3b 92 3d
       -0.019709412 -0.06565816 0.041577548 0.07140337
0000c0 7e 04 75 bd ef 94 2e bd 1e 7a 6e bd 89 cf 2c 3d
       -0.059818737 -0.042622503 -0.05822193 0.04219011
0000d0 87 5b 50 bd 24 58 f3 bc 1a 1e 5d bd 31 ad 16 3d
       -0.050868537 -0.029705115 -0.053983785 0.036786262
0000e0 8a 51 f3 3c 28 0f 23 bd 1a 85 93 3c 46 87 c2 3c
       0.029701967 -0.039809376 0.018007804 0.023746144
0000f0 ab 5b 4e bd cd 96 28 bd 3b 2b cc 3c d1 6b 54 bd
       -0.05038039 -0.04115944 0.024922958 -0.051860634
000100 36 c7 c1 bc 00 4b e1 bc c6 3e 77 3c 25 1f fe bc
       -0.023654561 -0.027501583 0.01509065 -0.03102071
000110 7d 56 30 3d d4 72 c7 3c 30 6b 59 bd 23 7d 3e bd
       0.04305123 0.024346747 -0.053080738 -0.04650606
000120 e9 0a f8 bc 40 d1 4a bd 82 eb 3b 3d 25 01 86 bd
       -0.03027864 -0.049515963 0.045878895 -0.06543187
000130 24 96 c5 bc 29 22 aa 3c d8 71 36 bd 86 9a f4 bc
       -0.024119444 0.020768242 -0.044542164 -0.029858839
000140 03 31 af 3c d0 b0 c2 bc c0 15 d6 ba 98 b6 cc 3c
       0.021385675 -0.023765951 -0.0016333386 0.024989411
000150 34 64 f9 bc e5 f0 58 3d d3 c8 4b 3d 95 2e 12 bd
       -0.030443288 0.05296411 0.049752068 -0.035688955
000160 e1 d2 6c bd 74 4d 65 bd c3 e5 74 3d b9 f0 5c bd
       -0.057818297 -0.05598207 0.05978943 -0.05394051
000170 1f 15 55 bd 87 f0 10 bd 96 a6 43 bd ed 2f 4c 3d
       -0.052022096 -0.035385635 -0.04776629 0.049850393
000180 41 34 14 bd ad ae 1e bd ce 2a 11 3d 6c 67 25 bd
       -0.036182646 -0.038740803 0.035441212 -0.040381834
000190 90 2a 59 bd f0 07 07 3d fb df 5b 3d 83 5e 5d bd
       -0.053019106 0.032966554 0.0536804 -0.05404521
0001a0 a1 0e 55 bd d0 59 36 3d de af 21 bd eb bf 55 bd
       -0.052015904 0.044519246 -0.03947436 -0.05218498
0001b0 19 8e 41 3d 7b bf 4b 3d cd 1e 13 bd e3 19 46 bd
       0.047254656 0.049743157 -0.035918046 -0.04836453
0001c0 17 2b 3f bd b1 ce dd ba f2 9a a1 3c 06 d8 c1 3c
       -0.046671953 -0.0016922561 0.019727204 0.023662578
0001d0 f3 1d 27 bd 01 30 fe bc f2 36 48 3d 38 ee 3c bd
       -0.040800046 -0.03102875 0.048880525 -0.04612562
0001e0 6b 4e 5e bd b6 3a 28 bd ee 2f 04 3d 6b be 1a bd
       -0.054274004 -0.041071616 0.03227227 -0.037779253
0001f0 a5 96 17 bd 5e 99 4e bd 36 04 e3 3b 2d ee 45 bb
       -0.0370089 -0.05043923 0.006927992 -0.0030201778
000200 0a be 1e 3d fc b9 19 bd 1a 16 78 bd eb 45 d3 3c
       0.038755454 -0.037530884 -0.060567953 0.025790175
000210 db e3 3f bd b3 ca 1a 3d 7a 4d 6a bd 21 bd a6 bc
       -0.04684816 0.037790965 -0.057202794 -0.020353856
000220 59 d9 c8 3c 88 c9 40 bd 0d 36 53 3d e9 f7 37 3d
       0.024517702 -0.047067195 0.05156522 0.04491416
000230 9a 94 5e bd 5c 25 e6 bc 6e d1 2d 3d 9b 55 d1 bc
       -0.054340936 -0.028093986 0.042436056 -0.025553515
000240 93 cf 2a bd 90 34 37 bd 9d 3e 13 bd 10 af 42 bd
       -0.041701864 -0.044727862 -0.035948385 -0.047530234
000250 0e ea 50 bd 0d 1d 32 bd 05 ed aa bc aa 8f 16 3d
       -0.051004462 -0.043484736 -0.020864973 0.036758102
000260 fc 9f 9e 3b 63 5d 47 bd 13 12 d5 3c e6 9b 2f bd
       0.004840849 -0.048673045 0.026009595 -0.042873286
000270 c4 c9 6d bd bb bb 31 bd e4 2d 5c bd fa a2 98 3d
       -0.058053747 -0.043391924 -0.053754702 0.0745296
000280 e2 1d 34 bd a0 ca c3 bc 1d 26 37 bd 12 83 00 3d
       -0.04397381 -0.02390033 -0.044714082 0.031375
000290 fb 9a 00 bd 75 71 16 bd 1c 70 32 bd 92 56 1c bd
       -0.0313978 -0.036729295 -0.043563947 -0.038168497
0002a0 e2 11 04 3a 96 7a 77 bd 40 9f 4e bd c2 10 2f bd
       0.0005038065 -0.06041964 -0.05044484 -0.04274059
0002b0 0c 15 d6 bc 84 09 6b bd 4a 95 08 3d fc 1d 1d bd
       -0.026133083 -0.05738212 0.0333455 -0.038358673
0002c0 a0 41 64 bd ac bc 1b bd d9 27 ab bc 0e 27 83 3c
       -0.055726647 -0.03802173 -0.020893024 0.016009834
0002d0 34 95 4b 3d 9c 74 5a bd 91 d5 26 bd 8b 98 5a 3d
       0.049702838 -0.053333864 -0.040731017 0.053368133
0002e0 d3 7e 22 3d 82 ad 2c bd 55 95 4c 3d 46 c5 e7 3c
       0.03967173 -0.042157657 0.0499471 0.02829231
0002f0 24 89 db bc 21 91 1f bd fd 16 41 3d 8f 2f 3b 3d
       -0.026798792 -0.038956765 0.047141064 0.045699652
000300 10 fc c2 bc ab fb 3a bd 64 44 dd bc aa 7f 5d 3d
       -0.023801833 -0.045650166 -0.02701015 0.054076828
000310 63 f1 6e bd af 86 41 bd a5 c1 2a bd 77 c6 e8 bc
       -0.058335673 -0.047247585 -0.04168858 -0.028414948
000320 59 68 3a 3d 64 d7 4b bd b0 f7 69 3d c3 02 16 3d
       0.04550967 -0.04976596 0.05712098 0.036623728
000330 b6 b1 01 3d e2 d7 3d bd c2 dd 6b bd c8 f1 5c bd
       0.03166362 -0.04634846 -0.05758453 -0.053941518
000340 aa f5 23 bd 01 43 47 bd 75 95 66 bd 4f 81 ca 3c
       -0.040029205 -0.048647884 -0.056294877 0.024719862
000350 bd ad 54 bd 00 30 4e bd bf cd 07 3d 6a 1c 21 bd
       -0.051923502 -0.050338745 0.0331552 -0.03933374
000360 68 1e 4b bd 46 a9 eb 3c a3 5f 69 bd 58 dd 34 bd
       -0.049589545 0.02876724 -0.056975972 -0.044156402
000370 d4 02 17 3d 3b 54 2d 3d 73 99 42 bd a0 8e 33 bd
       0.03686793 0.042316657 -0.04750962 -0.04383719
000380 b8 c1 4e bd 8a 10 41 3d 66 fb 10 bd 00 a0 1b bd
       -0.050477713 0.047134914 -0.035396002 -0.037994385
000390 0a 97 1a bc ae f2 71 bd a4 7f e1 3c f2 af c1 3c
       -0.009435425 -0.059069328 0.027526684 0.023643468
0003a0 7e 74 38 3d 82 1b bb bc f2 9f 5b bd 12 92 90 bd
       0.04503297 -0.022840265 -0.053619333 -0.07059111
0003b0 9d 4d 03 3c 61 14 62 3d 22 16 3a 3d 7e a4 3b bd
       0.00801411 0.055195216 0.045431264 -0.04581117
0003c0 81 28 20 3d 6c 2a ee bc 0f 2b b8 bc 5f d1 2b bd
       0.039101128 -0.029072963 -0.02248147 -0.04194772
0003d0 b4 02 2c 3d 4e 03 0d bd c1 9d 8b bd 94 06 06 bd
       0.041994765 -0.03442698 -0.068171985 -0.032721117
0003e0 1a 4d 2c bd 4d d7 d3 3c e4 1d 66 bd 85 a0 2c 3d
       -0.042065717 0.0258595 -0.05618085 0.04214527
0003f0 7d 1c b1 bc 37 58 5f bd df b7 ff 3b 05 35 73 bd
       -0.02162003 -0.054527488 0.0078039016 -0.059376735

fc2.bias f4 [147]
000000 b2 63 80 bd 88 35 8f 3d fe 01 9f bc b6 24 a8 bd
       -0.06269015 0.06992632 -0.01941013 -0.08210127
000010 a0 ae 8c 3c e0 a0 5b 39 9c 9c 47 3c cf 1a 14 3d
       0.017173111 0.00020945398 0.012183335 0.03615838
000020 7c a0 cc 3c 24 e2 03 bd 42 09 e1 bd d5 9d 08 3c
       0.024978869 -0.032198086 -0.10988094 0.008338411
000030 f2 01 be bd 34 70 c6 3d 3a 0c 8e 3d 2a 73 dc bc
       -0.09277715 0.0968937 0.06935926 -0.026910383
000040 63 c6 54 3d c1 24 a9 3d f1 d1 0e 3d d7 b7 b2 bc
       0.05194701 0.082589634 0.034868184 -0.021816177
000050 97 7b 4a 3d e7 fd 98 3b b0 89 8f bd 0d 02 8e 3d
       0.04943427 0.0046689394 -0.07008684 0.06933985
000060 1e 11 7c 3b 8b 55 b7 3d e1 43 cd bd 46 31 af 3d
       0.003846235 0.08951863 -0.100227125 0.0855432
000070 a0 9b 03 3e b4 1e 8c bc 74 29 54 3d 15 6a 9b 3d
       0.12852335 -0.017104484 0.051797345 0.07588593
000080 8d 65 62 3d 97 a5 a7 bd 26 d9 36 bd 7e 3e a8 bd
       0.055272628 -0.08185881 -0.044640683 -0.082150444
000090 1d 8b 9a bd dc eb b3 3d c4 c0 06 3e bf f2 4e 3c
       -0.07546065 0.08785221 0.13159472 0.012631117
0000a0 c0 7e 66 3c c8 2f 01 be b0 f1 ad bd 3e 74 df 3d
       0.0140683055 -0.12615883 -0.08493364 0.10910843
0000b0 8c 2b b9 3c d8 20 74 bd 21 9b 89 3b f7 f6 00 be
       0.022603773 -0.059601635 0.004199401 -0.1259421
0000c0 0e a2 60 3d fc 93 2e 3d 5d 10 79 3c 6b a7 62 3d
       0.054842047 0.042621598 0.015201655 0.055335443
0000d0 e9 4a 2a bd 23 f5 9e bc 21 3e 2a 3d a2 94 bf bc
       -0.041575346 -0.019404 0.041563157 -0.023386303
0000e0 fe 78 54 3d 99 f2 32 3d 38 7d d4 bc 90 c2 2c bc
       0.0518732 0.04368839 -0.025938615 -0.010544434
0000f0 ad 0f a0 bc 59 e0 a7 bd ce cd ae 3b 54 a8 bc bd
       -0.019538725 -0.08197088 0.0053345924 -0.092117935
000100 ef 34 43 bd 3c 93 0c bd 9f 59 56 bd eb 5d e4 3d
       -0.047657903 -0.0343201 -0.052331563 0.11150726
000110 3f fa 91 3c 7f b9 fc 3d a7 95 3b bd 0b c6 f7 bd
       0.017819522 0.12340068 -0.045797016 -0.120983206
000120 25 25 9a ba 76 f1 a9 bb bf 24 45 3d 3a 0a 07 bd
       -0.0011760338 -0.005186255 0.048130747 -0.032968737
000130 1e ea f0 3d ef 93 bc 3d b8 e9 62 bd c4 4a e8 bd
       0.11763404 0.092079036 -0.055398673 -0.113423854
000140 5c 8a c5 bc 08 96 b9 3c 76 84 16 bd ce f2 ac bc
       -0.024113826 0.022654548 -0.03674742 -0.021111872
000150 55 d1 bb 3c bc f5 f2 bc 11 b0 05 3e 00 cf 9a bc
       0.022926966 -0.02965819 0.13055445 -0.018897533
000160 43 80 69 3b 3c 7c 12 3d 2b ad 21 3d 07 93 63 3d
       0.0035629428 0.03576301 0.039471786 0.055560138
000170 4c 54 01 be 4c 3a 84 bd fc 60 04 3d 9c d3 9c bd
       -0.12629813 -0.06456432 0.032319054 -0.07657549
000180 68 e6 40 3d a0 82 8e 3c 62 5c 8e 3d 58 5a 77 3d
       0.047094733 0.017396271 0.069512144 0.060388893
000190 ea 5d 79 bd bc 65 f3 ba 5f d2 86 bc 6d 38 07 be
       -0.06088058 -0.0018569748 -0.016457735 -0.13205118
0001a0 4e b4 6b 3d 79 1f 2c bd ea 66 d1 3d 95 41 36 3c
       0.057545 -0.042022202 0.102247074 0.011124034
0001b0 64 55 95 bd 7f b8 0f 3d 6b 4a 14 bd ce 8a 64 3d
       -0.072916776 0.03508806 -0.036203783 0.055796437
0001c0 5a 09 fe bd bb a7 a2 bc c2 bc 09 3c 8e 31 61 bd
       -0.124041274 -0.01985537 0.00840682 -0.0549789
0001d0 c5 71 f2 3d c3 34 b8 3d 47 9e e0 bb f9 9f ed 3d
       0.11838106 0.089944385 -0.0068548056 0.11602778
0001e0 11 b5 fc 3d 0d 85 c2 bd a1 15 68 3d 10 8b 02 3d
       0.12339223 -0.09498034 0.056661252 0.0318709
0001f0 fe 59 a7 bc fe 49 8d 3d 0b 94 c9 bd 5b 1e 51 3d
       -0.020428654 0.068988785 -0.0984269 0.05105434
000200 72 e3 86 bd c6 5c 86 bc 20 5e cf 3d 87 a8 9f 3d
       -0.065863505 -0.01640166 0.10125375 0.07795816
000210 a6 03 82 3c ee cc 4d 3d d6 ef 21 3d 68 fb 43 3d
       0.01587088 0.050244264 0.039535366 0.04784718
000220 71 a2 ea bc 55 30 ca bd 02 0c 3d bd 34 c5 0c 3b
       -0.028641911 -0.098725 -0.04615403 0.0021479847
000230 f0 c7 dc bb 98 71 81 bd 35 79 b7 bc e1 d6 40 bd
       -0.0067377016 -0.063204944 -0.022396663 -0.047079924
000240 89 f4 05 be ca 54 f9 bb 7e 41 ac bd
       -0.13081564 -0.0076089846 -0.08410929
