assist_model.pt (torch, 51681 bytes, 14 tensors)

fc1.weight f4 [64, 64]
-0.011916088 -0.09907261 0.07336445 0.012634713 0.08893786 -0.024976188 0.11367141 0.042317245
0.08125798 -0.12002087 -0.048968796 -0.056803573 -0.028809376 -0.041408427 0.059105635 0.09644862
0.13341255 -0.035010718 0.09276018 -0.028081523 0.1433993 0.10988075 -0.041054443 0.07288785
0.017225096 -0.084372476 0.12132851 -0.0702081 0.05024783 -0.02625355 -0.03320892 0.017426379
-0.11050585 0.11470435 0.059992246 -0.08896168 -0.10624594 -0.084478125 -0.04375775 0.04619029
0.10373404 0.09417126 0.023401417 -0.1081451 0.048299275 -0.03596711 -0.09066571 0.007986023
0.087092265 0.00052684254 -0.07122963 -0.0054079816 0.1169299 0.06083331 0.027345901 0.11361064
-0.10318644 0.06971552 0.07633014 -0.0033453652 -0.03517233 -0.022221291 0.030336237 0.09729571
0.08899177 0.10939943 -0.0047457097 -0.07820653 0.09584783 -0.08145113 0.07959465 -0.12041514
0.014145838 -0.046886563 0.048896197 -0.11097341 0.05936852 -0.09169811 0.09370623 -0.08744847
-0.024968853 -0.07062194 0.08622483 -0.009941657 0.049837515 -0.054323234 -0.026952835 0.03241841
0.07549706 0.038071666 0.03850136 0.041148346 0.041974902 -0.14700389 -0.110329494 -0.022184914
0.07831812 -0.09510554 -0.082193896 -0.10011322 -0.048807986 -0.032239415 -0.03072802 0.09701971
-0.017553518 -0.09443311 -0.05860061 -0.095298134 -0.075996056 -0.030903887 -0.052023146 0.044603534
0.017038058 -0.105737284 -0.08537347 -0.03815809 -0.028691208 -0.07392732 0.063320324 0.033639103
-0.03813386 0.041555565 -0.053003006 0.01218172 0.02709443 -0.0018282956 0.108261794 -0.12998478
0.013022828 0.006881914 -0.04532456 0.034073193 -0.044298317 -0.011200138 0.01319617 -0.02222872
-0.022771422 -0.088209294 0.06298975 0.11408879 -0.015829874 -0.0413267 -0.008442271 -0.062592894
0.050783 0.050053924 0.15885918 -0.08526571 -0.013033341 0.064649455 -0.11395285 0.12628607
0.046117224 -0.018848507 -0.011336152 0.046251506 -0.09361893 0.008839998 -0.010735069 0.011173432
-0.07836204 0.08665845 -0.1395349 -0.10559537 -0.036708787 0.052822623 0.053733926 0.051110893
-0.0793744 0.07453056 0.035921704 0.016408484 0.072242 0.038266867 0.012337342 0.016199887
-0.018273087 -0.046349414 -0.06339017 0.11617231 0.034876928 -0.012778535 -0.0054128305 -0.054359455
-0.010458633 -0.12975498 0.092389934 0.04342864 0.13349819 0.016438203 -0.11988487 -0.121247195
0.1421153 -0.10837372 0.08342222 -0.101169944 0.0066778595 -0.032375604 -0.06951897 -0.042478293
0.079368286 0.03152982 -0.06921165 0.03914795 0.16011189 0.10248387 0.12186896 -0.00023938698
-0.0905696 -0.07248745 0.035122678 0.0962223 0.10555401 -0.07523243 0.093485504 -0.065595604
0.03236844 0.094791114 0.062728524 0.012458651 -0.046402615 0.11349264 0.12871726 0.03738005
0.04274796 -0.014045218 -0.003666413 0.1326769 0.13597262 -0.059597857 0.024995962 -0.053559415
-0.12752907 0.08037342 -0.13536407 0.08263485 0.087633766 -0.041345384 0.015512647 -0.06079958
-0.09222899 -0.04612624 -0.030753648 0.099372454 -0.1001575 -0.04776782 -0.050796073 0.051735684
0.069628716 -0.1329047 -0.02966256 0.067309365 -0.10553765 -0.014458371 0.103574954 -0.05593429
00000000: b23b 43bc 95e6 cabd 1a40 963d d401 4f3c
00000010: 0e25 b63d dd9a ccbc 8ecc e83d d954 2d3d
00000020: 956a a63d 80cd f5bd 8193 48bd ddaa 68bd
00000030: a401 ecbc e29b 29bd c018 723d db86 c53d
00000040: 4d9d 083e 6667 0fbd 0df9 bd3d 390b e6bc
00000050: 44d7 123e 2909 e13d b428 28bd 3a46 953d
00000060: a51b 8d3c 7acb acbd 157b f83d 44c9 8fbd
00000070: abd0 4d3d af11 d7bc 1406 08bd c4c1 8e3c
00000080: e450 e2bd 1dea ea3d 6eba 753d 8b31 b6bd
00000090: 7997 d9bd de02 adbd 543b 33bd 0832 3d3d
000000a0: 8372 d43d dddc c03d 54b4 bf3c 2e7b ddbd
000000b0: 76d5 453d 4052 13bd f2ae b9bd cfd7 023c
000000c0: 6e5d b23d ce1b 0a3a d7e0 91bd 7035 b1bb
000000d0: f278 ef3d 592c 793d 8304 e03c b2ac e83d
000000e0: 6a53 d3bd 03c7 8e3d fa52 9c3d ea3d 5bbb
000000f0: dc10 10bd 6d09 b6bc b383 f83c f942 c73d
00000100: 5141 b63d cf0c e03d e681 9bbb bf2a a0bd
00000110: de4b c43d dacf a6bd 8502 a33d 379c f6bd
00000120: f2c3 673c 200c 40bd 6147 483d 0746 e3bd
00000130: 682c 733d 38cc bbbd 0de9 bf3d 2f18 b3bd
00000140: 7b8b ccbc 3ca2 90bd a596 b03d 55e2 22bc
00000150: 6c22 4c3d 0a82 5ebd 31cc dcbc 2bc9 043d
00000160: 349e 9a3d 09f1 1b3d 9ab3 1d3d 2b8b 283d
00000170: e0ed 2b3d 3088 16be 6ef4 e1bd 23bd b5bc
00000180: 4065 a03d b1c6 c2bd 4655 a8bd 2908 cdbd
00000190: e2ea 47bd 7a0d 04bd 54b9 fbbc 45b2 c63d
000001a0: 65cc 8fbc 2566 c1bd 3107 70bd ab2b c3bd
000001b0: d2a3 9bbd 262a fdbc 3916 55bd 32b2 363d
000001c0: 6693 8b3c ca8c d8bd 49d8 aebd a84b 1cbd
000001d0: d309 ebbc 3567 97bd 16ae 813d 28c9 093d
000001e0: 4032 1cbd 2b36 2a3d ae19 59bd d695 473c
000001f0: 23f5 dd3c 6ca3 efba 5cb8 dd3d bb1a 05be
00000200: b35d 553c ae81 e13b 3fa6 39bd 5590 0b3d
00000210: 2772 35bd c980 37bc c034 583c 0119 b6bc
00000220: 228b babc 13a7 b4bd c500 813d 62a7 e93d
00000230: a7ad 81bc 3046 29bd 7351 0abc b430 80bd
00000240: d601 503d 5805 4d3d fbab 223e ca9f aebd
00000250: cb89 55bc ef66 843d 1d60 e9bd 2351 013e
00000260: 6ae5 3c3d 2f68 9abc 45bb 39bc 3872 3d3d
00000270: 48bb bfbd a4d5 103c 25e2 2fbc c510 373c
00000280: 477c a0bd fc79 b13d 3de2 0ebe 6342 d8bd
00000290: f45b 16bd 895c 583d 1b18 5c3d a859 513d
000002a0: 0c8f a2bd 7aa3 983d a322 133d 166b 863c
000002b0: 9df3 933d b8bd 1c3d 9022 4a3c a0b5 843c
000002c0: 71b1 95bc e2d8 3dbd b5d2 81bd c0eb ed3d
000002d0: 1cdb 0e3d 0f5d 51bc 1d5e b1bb 05a8 5ebd
000002e0: b05a 2bbc 7dde 04be ef36 bd3d 3be2 313d
000002f0: c0b3 083e 69a9 863c 3386 f5bd 7350 f8bd
00000300: ac86 113e 0af3 ddbd 45d9 aa3d 3032 cfbd
00000310: f2d1 da3b 489c 04bd f65f 8ebd b8fd 2dbd
00000320: d78b a23d 6a25 013d d6be 8dbd 9a59 203d
00000330: 5ff4 233e 10e3 d13d 6f96 f93d f403 7bb9
00000340: 8e7c b9bd 4d74 94bd ccdc 0f3d 3210 c53d
00000350: b32c d83d 7613 9abd 5475 bf3d fd56 86bd
00000360: c594 043d d821 c23d d077 803d 5f1f 4c3c
00000370: ab10 3ebd d46e e83d 75ce 033e d31b 193d
00000380: 7c18 2f3d ea1d 66bc 3448 70bb 74dc 073e
00000390: 683c 0b3e e21c 74bd 55c4 cc3c 1e61 5bbd
000003a0: fb96 02be d29a a43d e19c 0abe 763c a93d
000003b0: 5579 b33d c759 29bd c228 7e3c fb08 79bd
000003c0: 8de2 bcbd deee 3cbd 13ef fbbc c983 cb3d
000003d0: 601f cdbd 31a8 43bd 8b0f 50bd cce8 533d
000003e0: 8099 8e3d 2b18 08be e6fe f2bc 7ed9 893d
000003f0: 2024 d8bd cee2 6cbc 1b1f d43d 5b1b 65bd

fc1.bias f4 [64]
-0.03616393 -3.116278e-06 0.122909866 -0.04643588 0.05474145 0.081358306 0.056013547 -0.09338505
0.05982835 0.040585604 -0.016201336 0.12702426 0.10231846 0.019980501 0.08309982 0.082815886
0.002626845 0.09348732 -0.00921461 -0.070034 0.11943932 -0.088555686 0.032263417 0.112009145
0.10514385 0.053175066 -0.06630016 0.061551265 -0.10365256 -0.045602966 0.12383581 0.02710355
-0.11213472 -0.038960014 -0.090812646 -0.09904907 0.055769555 0.05950312 -0.082478955 0.08932528
0.09218408 -0.043410085 0.051644985 0.05666314 0.08384358 -0.08524802 0.119134724 -0.07696018
0.015171198 0.09382083 0.102348246 -0.004355625 -0.018908419 -0.09582286 0.009760162 -0.071647815
0.06903891 0.07850908 0.08039917 -0.04263631 0.0641796 -0.03809432 -0.025309628 0.03857298
00000000: a120 14bd 4021 51b6 2bb8 fb3d 8d33 3ebd
00000010: 9238 603d 2f9f a63d 766e 653d a940 bfbd
00000020: 920e 753d 173d 263d aab8 84bc a612 023e
00000030: 578c d13d 26ae a33c 3d30 aa3d 609b a93d
00000040: 2527 2c3b 4876 bf3d e0f8 16bc fc6d 8fbd
00000050: 9a9c f43d af5c b5bd a526 043d 0d65 e53d
00000060: a955 d73d 19ce 593d 61c8 87bd 2e1d 7c3d
00000070: cb47 d4bd 2dca 3abd a19d fd3d 4408 de3c
00000080: e3a6 e5bd 8994 1fbd fbfb b9bd 3dda cabd
00000090: 9e6e 643d 8bb9 733d baea a8bd 2cf0 b63d
000000a0: 02cb bc3d c6ce 31bd b189 533d 9c17 683d
000000b0: 2fb6 ab3d 8496 aebd e8fc f33d 4d9d 9dbd
000000c0: 9e90 783c 2325 c03d f59b d13d a1b9 8ebb
000000d0: d4e5 9abc c73e c4bd 16e9 1f3c 17bc 92bd
000000e0: 4664 8d3d 5ec9 a03d 52a8 a43d 69a3 2ebd
000000f0: 9870 833d ca08 1cbd 2356 cfbc b3fe 1d3d

bn1.weight f4 [64]
0.97520524 1.0139242 0.96858525 0.9688154 0.9756763 0.96682215 1.0099254 1.0323665
1.0105392 1.0325816 1.0410298 1.0142167 0.9762146 1.035198 1.0189192 0.9837128
1.0204026 0.9802313 0.97288525 1.0167329 0.9780886 1.0291023 1.0156677 1.037961
1.0153313 0.99666595 1.0067117 1.007517 0.99373406 0.9765905 0.9689402 0.9835767
0.9954858 1.0043242 0.965466 0.9692043 0.96781534 1.0037297 1.0057139 1.0038399
1.0380932 1.0368615 1.0086964 0.99069005 0.9982753 0.99953574 0.97542447 0.9679929
0.96344215 1.0151823 0.97609746 1.0110254 1.0048182 0.9656825 1.0176443 0.9981746
1.0101691 0.9691943 0.9691964 1.0323604 1.0270141 1.003561 1.0349878 1.0049822
00000000: 0da7 793f 45c8 813f 34f5 773f 4904 783f
00000010: ecc5 793f a881 773f 3c45 813f 9624 843f
00000020: 5959 813f a22b 843f 7740 853f dad1 813f
00000030: 33e9 793f 5e81 843f f26b 823f 9ad4 7b3f
00000040: 8d9c 823f 70f0 7a3f 020f 793f 4e24 823f
00000050: 0464 7a3f a0b9 833f 6601 823f e8db 843f
00000060: 60f6 813f 8025 7f3f eedb 803f 51f6 803f
00000070: 5b65 7e3f d601 7a3f 770c 783f afcb 7b3f
00000080: 28d8 7e3f b28d 803f c828 773f c61d 783f
00000090: bfc2 773f 377a 803f 3cbb 803f d37d 803f
000000a0: 3de0 843f e1b7 843f f71c 813f dd9d 7d3f
000000b0: f88e 7f3f 93e1 7f3f 6bb5 793f 62ce 773f
000000c0: 25a4 763f 7ef1 813f 86e1 793f 4869 813f
000000d0: e29d 803f f836 773f 2b42 823f 5f88 7f3f
000000e0: 394d 813f 1e1d 783f 411d 783f 6324 843f
000000f0: 3375 833f b074 803f 7b7a 843f 42a3 803f

bn1.bias f4 [64]
-0.014869204 -0.024241712 -0.025019366 -0.03436024 -0.03203077 -0.040190388 0.0043216283 0.008095835
0.014947043 0.028238013 0.026355535 0.0071517094 -0.026662406 0.020462137 0.01421125 -0.017445195
-0.0021983772 -0.031269923 0.003403155 -0.0060789003 -0.023044962 0.017371621 -0.02938071 0.02996266
-0.0053548603 -0.0103247855 0.0074315905 0.00090896274 -0.026899923 -0.033426452 -0.016193276 -0.031229228
-0.024042938 0.008141162 -0.037086435 -0.035210732 -0.030684484 0.010601485 -0.015390712 0.016637737
0.016362615 0.029398607 0.003800719 -0.028908249 0.0034218617 0.023882575 -0.012077325 -0.04345103
-0.038342632 0.0067445524 0.0032683357 0.0011525413 -0.00248273 -0.02638906 -0.023072664 -0.005616658
0.011257378 -0.03072484 -0.03546213 0.027202098 0.011115024 0.01816313 0.03627394 -0.014196165
00000000: f69d 73bc 8e96 c6bc 6af5 ccbc 53bd 0cbd
00000010: b232 03bd ad9e 24bd 729c 8d3b 65a4 043c
00000020: 71e4 743c 6853 e73c 90e7 d73c e358 ea3b
00000030: 1e6b dabc 36a0 a73c 4dd6 683c 3ae9 8ebc
00000040: a612 10bb e414 00bd 7707 5f3b 8331 c7bb
00000050: cac8 bcbc ee4e 8e3c d1af f0bc 4174 f53c
00000060: d377 afbb 4a29 29bc b384 f33b 7547 6e3a
00000070: 3a5d dcbc 2dea 08bd c3a7 84bc 70d4 ffbc
00000080: b2f5 c4bc 8262 053c f2e7 17bd 2139 10bd
00000090: 075e fbbc dab1 2d3c 5329 7cbc dd4b 883c
000000a0: e40a 863c 59d5 f03c 7c15 793b fed0 ecbc
000000b0: 5041 603b 64a5 c33c f9df 45bc b5f9 31bd
000000c0: 2a0d 1dbd 6801 dd3b 9331 563b de10 973a
000000d0: 4cb5 22bb df2d d8bc e202 bdbc f10b b8bb
000000e0: de70 383c a9b2 fbbc bd40 11bd efd6 de3c
000000f0: ca1b 363c d8ca 943c fc93 143d 0897 68bc

bn1.running_mean f4 [64]
0.10224933 -0.32599273 0.11031808 -0.038490437 -0.011039596 0.042833693 0.16996934 0.13188446
0.029133903 0.04328125 -0.011105571 0.034951363 0.235233 0.02291658 -0.2945195 0.0029444261
-0.4066406 0.15320465 -0.058181517 0.22042738 0.04722613 -0.18361683 -0.07983204 -0.07479011
0.052881554 0.25222546 -0.042832166 -0.2711194 0.17422502 -0.026457898 -0.030366313 0.046116166
-0.09360749 0.090642124 -0.015604004 -0.33696413 0.034015648 0.20859027 0.1368406 0.17318904
0.1781521 0.046122525 0.30926096 0.16148417 -0.1423321 0.16583738 0.0806326 0.21358179
0.013814376 0.17954873 0.083409384 0.07993097 -0.07523466 -0.1819136 -0.25010988 0.10083675
0.2567373 0.23563135 -0.19869389 0.014094567 0.11733075 0.06735749 -0.04202218 0.2511506
00000000: 1968 d13d 85e8 a6be 72ee e13d 26a8 1dbd
00000010: 6cdf 34bc 6272 2f3d 710c 2e3e b80c 073e
00000020: 39aa ee3c ae47 313d 24f4 35bc 2929 0f3d
00000030: ebe0 703e 8dbb bb3c 43cb 96be 46f7 403b
00000040: 3233 d0be aee1 1c3e be4f 6ebd b7b7 613e
00000050: 3070 413d 0d06 3cbe fb7e a3bd 8f2b 99bd
00000060: 549a 583d b223 813e c870 2fbd 29d0 8abe
00000070: 0b68 323e 3cbe d8bc c6c2 f8bc 4ee4 3c3d
00000080: 49b5 bfbd 94a2 b93d f0a7 7fbc 9086 acbe
00000090: fe53 0b3d b098 553e f11f 0c3e 7858 313e
000000a0: 816d 363e f9ea 3c3d 7457 9e3e 1b5c 253e
000000b0: 82bf 11be 46d1 293e b422 a53d 2fb5 5a3e
000000c0: b155 623c 9fdb 373e 8ad2 aa3d d9b2 a33d
000000d0: a114 9abd 8f47 3abe 670e 80be 7f83 ce3d
000000e0: 1273 833e 5849 713e 6976 4bbe e6ec 663c
000000f0: 1b4b f03d b9f2 893d 731f 2cbd d096 803e

bn1.running_var f4 [64]
0.24287643 0.22770639 0.23485446 0.24546297 0.24502717 0.2404629 0.22498111 0.22699454
0.22824629 0.23123252 0.23112641 0.22897004 0.2180608 0.21983868 0.24792378 0.22046483
0.25504592 0.24490958 0.27225143 0.22705525 0.2579759 0.23174992 0.22464797 0.22529718
0.23847945 0.24089064 0.28344157 0.2527101 0.2358281 0.2388287 0.24322793 0.23454888
0.23832501 0.24869879 0.25235227 0.23293011 0.23298828 0.22543454 0.24658069 0.24958262
0.23581 0.22774792 0.235143 0.23844518 0.23054491 0.22589025 0.23454855 0.23464516
0.2645787 0.25334778 0.22648466 0.2355964 0.22227098 0.23103197 0.23673543 0.25873163
0.24809194 0.22755632 0.24662371 0.22377184 0.23155129 0.23758416 0.22791554 0.23315506
00000000: 99b4 783e dd2b 693e b07d 703e a55a 7b3e
00000010: 67e8 7a3e e83b 763e 7361 663e 4271 683e
00000020: 65b9 693e 38c8 6c3e 67ac 6c3e 1f77 6a3e
00000030: 554b 5f3e 641d 613e bbdf 7d3e 88c1 613e
00000040: 6195 823e 94c9 7a3e 8a64 8b3e 2c81 683e
00000050: 6b15 843e da4f 6d3e 1e0a 663e 4eb4 663e
00000060: f533 743e 09ac 763e 411f 913e 3863 813e
00000070: ec7c 713e 838f 743e be10 793e 952d 703e
00000080: 790b 743e e5aa 7e3e 5134 813e 3b85 6e3e
00000090: 7b94 6e3e 50d8 663e a67f 7c3e 9692 7f3e
000000a0: 2d78 713e c036 693e 54c9 703e f92a 743e
000000b0: f713 6c3e c64f 673e 7f2d 703e d246 703e
000000c0: dc76 873e cdb6 813e 98eb 673e 2f40 713e
000000d0: 019b 633e a593 6c3e c66a 723e 7978 843e
000000e0: d00b 7e3e 8604 693e ed8a 7c3e 7224 653e
000000f0: c81b 6d3e 4349 733e b162 693e 33c0 6e3e

fc2.weight f4 [32, 64]
-0.09882937 -0.024723666 -0.037057135 0.014852928 0.09442812 -0.1332123 -0.0051235985 0.0733913
0.047651045 -0.113286205 0.079124294 -0.093054645 -0.0009608981 -0.02988699 0.037902966 0.021880383
0.15895656 -0.09651195 -0.10416688 0.013997888 -0.15566745 0.04287141 0.1092859 -0.11231549
0.05641106 0.061283883 -0.109931484 0.001515766 -0.076803945 0.10419254 0.07147573 -0.014857184
-0.114815705 0.033895146 -0.040862806 -0.088342234 0.023549257 -0.04197938 0.05990748 -0.095250696
-0.124879986 0.12260415 -0.06733524 -0.021021904 0.046097036 -0.099712744 0.014016568 -0.012893543
0.06301111 -0.13130279 0.015076686 -0.05052995 0.10657767 -0.10566876 -0.029262694 -0.07593434
0.070003584 0.07805307 0.08839051 0.1529787 0.111986876 0.11834415 0.04708857 0.04605463
-0.036466308 0.00040273552 0.047866784 -0.02067328 -0.0587092 0.030902315 -0.033709187 -0.10354099
-0.07622357 -0.13515186 0.016932348 0.014082253 -0.09262075 0.012240981 0.045999512 0.012575517
0.04182111 -0.07950948 -0.027887134 0.10791919 -0.046828434 -0.08755131 0.016985849 -0.032269336
-0.03669434 0.0648265 0.035615765 -0.036045786 0.08833861 0.1387577 0.0717302 0.07664862
0.026015144 -0.018905899 -0.09878655 0.07157276 -0.048700295 -0.099538215 -0.015094565 0.08688523
0.11812475 -0.0025249976 -0.12519054 0.02593287 0.1353017 -0.095375024 -0.043866485 -0.10269957
0.10691725 -0.112478174 -0.021306148 -0.01625628 -0.065890305 -0.0751628 0.030666277 -0.020476962
-0.021748794 -0.01385766 0.09135163 0.116833135 -0.077724695 -0.102965094 -0.09593271 0.02141869
-0.026132923 -0.07483065 0.062008698 0.107414104 -0.016026368 0.049062274 -0.11165062 -0.0545931
0.14399832 0.040935416 -0.09512343 -0.045570396 0.09267665 0.12884699 -0.021164635 -0.035437644
0.099509574 0.12460438 -0.13662334 -0.14781375 0.105892755 -0.117130674 -0.129373 0.094869815
0.04159164 0.05243269 -0.051163424 0.033956114 0.045545153 -0.10072325 0.00273272 0.0814973
0.0053327885 -0.12079735 -0.09745399 0.06787004 0.020296134 0.08475832 0.033343207 -0.007940002
-0.04680979 -0.0688861 0.065749586 0.0024777208 -0.080537856 0.10551257 0.056533255 0.042320535
0.016231138 0.037308004 -0.03716145 -0.097565174 -0.04253952 0.034139235 0.042974908 -0.041414645
0.056731932 0.06337651 0.0133626135 0.07719089 -0.05590897 -0.009936569 -0.097448766 0.08906381
-0.088540144 0.017458746 0.009066425 0.02358494 0.031433325 -0.08966158 0.07165802 -0.102435425
-0.14532435 0.1291081 0.15605052 -0.021762444 -0.068469204 -0.0059810877 0.035665248 0.011467431
0.08830613 -0.07418076 0.046434414 -0.036802284 0.05598125 0.017010514 -0.12904325 0.14077394
0.016950196 0.054754145 0.07005134 0.026891785 -0.029381668 -0.09157968 -0.026745237 -0.14063059
0.07305326 -0.0024865235 -0.100124225 0.038632073 0.09515363 -0.07082705 0.11447999 0.096189626
0.14804918 -0.08766107 -0.08003596 0.06531031 0.04673732 0.08783417 0.04741327 0.062326856
0.064566724 0.10214545 0.12373558 0.0077775447 0.03174664 -0.058494475 -0.07609849 -0.071164325
0.091500066 -0.11400296 0.017746778 0.027520936 -0.1052497 0.10309749 -0.018977381 -0.012716399
00000000: 0e67 cabd 4989 cabc 39c9 17bd b259 733c
00000010: 8863 c13d ce68 08be dce3 a7bb 2e4e 963d
00000020: be2d 433d 9902 e8bd eb0b a23d 6f93 bebd
00000030: c8e4 7bba 90d5 f4bc 2440 1b3d 7d3e b33c
00000040: 82c5 223e 0fa8 c5bd 7255 d5bd 6657 653c
00000050: 4a67 1fbe ee99 2f3d 49d1 df3d aa05 e6bd
00000060: 490f 673d cf04 7b3d c223 e1bd abac c63a
00000070: 634b 9dbd e662 d53d de61 923d 8c6b 73bc
00000080: 7f24 ebbd a3d5 0a3d c25f 27bd c6ec b4bd
00000090: 5fea c03c 92f2 2bbd 8c61 753d cc12 c3bd
000000a0: 14c1 ffbd e217 fb3d 0fe7 89bd 2136 acbc
000000b0: 3fd0 3c3d 3236 ccbd bfa5 653c 703f 53bc
000000c0: f80b 813d 3d74 06be 3404 773c 7ef8 4ebd
000000d0: 6545 da3d dd68 d8bd 51b8 efbc 7783 9bbd
000000e0: 0a5e 8f3d 4ada 9f3d 1506 b53d 73a6 1c3e
000000f0: 6059 e53d 6b5e f23d f2df 403d c8a3 3c3d
00000100: b25d 15bd 3f26 d339 f60f 443d 035b a9bc
00000110: 0f79 70bd da26 fd3c a512 0abd 4c0d d4bd
00000120: 1a1b 9cbd 4065 0abe b5b5 8a3c 40b9 663c
00000130: f3af bdbd 658e 483c fc69 3c3d 8b09 4e3c
00000140: 9d4c 2b3d ded5 a2bd 8f73 e4bc bc04 dd3d
00000150: 2ccf 3fbd 1a4e b3bd e825 8b3c da2c 04bd
00000160: ce4c 16bd c2c3 843d d6e1 113d bfa4 13bd
00000170: e0ea b43d 8016 0e3e 48e7 923d f4f9 9c3d
00000180: b61d d53c 8be0 9abc 9a50 cabd bd94 923d
00000190: f679 47bd b1da cbbd 324f 77bc e2f0 b13d
000001a0: 64eb f13d 6e7a 25bb f331 00be 2c71 d43c
000001b0: 878c 0a3e fb53 c3bd 58ad 33bd 2754 d2bd
000001c0: 6ef7 da3d f55a e6bd 3b8a aebc e42b 85bc
000001d0: 7ff1 86bd f4ee 99bd d837 fb3c 4dbf a7bc
000001e0: 872a b2bc 3d0b 63bc 9016 bb3d 3646 ef3d
000001f0: 202e 9fbd 5ddf d2bd 5e78 c4bd 4076 af3c
00000200: b614 d6bc d040 99bd d5fc 7d3d edfb db3d
00000210: bb49 83bc 86f5 483d 15a9 e4bd 049d 5fbd
00000220: 4c74 133e e5ab 273d 13d0 c2bd 06a8 3abd
00000230: 41cd bd3d 77f0 033e 7561 adbc 1027 11bd
00000240: adcb cb3d 9530 ff3d fde6 0bbe 7d5c 17be
00000250: 4dde d83d 35e2 efbd 5b7a 04be 1b4b c23d
00000260: ff5b 2a3d a9c3 563d bd90 51bd 9115 0b3d
00000270: 8e8d 3a3d fe47 cebd 6f17 333b 0ee8 a63d
00000280: acbe ae3b 9a64 f7bd f595 c7bd 73ff 8a3d
00000290: 1444 a63c c595 ad3d e392 083d c816 02bc
000002a0: 9fbb 3fbd 2814 8dbd b8a7 863d 4261 223b
000002b0: 08f1 a4bd f916 d83d 6a8f 673d 4c58 2d3d
000002c0: 2af7 843c 47d0 183d 9b36 18bd 40d0 c7bd
000002d0: eb3d 2ebd 95d5 0b3d 7506 303d 67a2 29bd
000002e0: be5f 683d 8bcb 813d ddee 5a3c 4216 9e3d
000002f0: ce00 65bd fecc 22bc 3893 c7bd 1667 b63d
00000300: 8954 b5bd a505 8f3c 588b 143c 3435 c13c
00000310: 3bc0 003d 7ea0 b7bd 71c1 923d aac9 d1bd
00000320: e8cf 14be ea34 043e b5cb 1f3e 2747 b2bc
00000330: 9539 8cbd 00fd c3bb b915 123d e4e1 3b3c
00000340: d8d9 b43d 15ec 97bd 0332 3e3d febd 16bd
00000350: 984c 653d a259 8b3c ea23 04be 0b27 103e
00000360: 23db 8a3c e245 603d 1477 8f3d 294c dc3c
00000370: d3b1 f0bc 218e bbbd d418 dbbc 7701 10be
00000380: f39c 953d f1f4 22bb ee0d cdbd aa3c 1e3d
00000390: e8df c23d c60d 91bd 7c74 ea3d 11ff c43d
000003a0: 349a 173e a687 b3bd e5e9 a3bd 69c1 853d
000003b0: a26f 3f3d 67e2 b33d 6b34 423d 724a 7f3d
000003c0: 8f3b 843d a231 d13d 1469 fd3d c6da fe3b
000003d0: c408 023d e797 6fbd 86d9 9bbd 9abe 91bd
000003e0: 6364 bb3d 627a e9bd b161 913c 9673 e13c
000003f0: 288d d7bd c724 d33d 7476 9bbc 7158 50bc

fc2.bias f4 [32]
0.07823536 0.0461747 0.011111691 0.011952363 -0.039644957 -0.03128486 -0.010144086 -0.038703967
-0.008313729 0.00032315878 0.08210869 0.085689925 -0.043929752 -0.10898652 -0.029020343 0.051224507
-0.103602566 0.11260917 -0.07011864 -0.005332515 -0.027323144 0.10408088 -0.102356404 0.016820803
-0.04300412 0.009754187 0.021319743 -0.075297624 0.051920425 -0.05467079 -0.018336672 -0.076123685
00000000: dc39 a03d af21 3d3d cf0d 363c d8d3 433c
00000010: c062 22bd 8e24 00bd 6133 26bc 0d88 1ebd
00000020: 4f36 08bc a36d a939 9a28 a83d 337e af3d
00000030: afef 33bd 5334 dfbd 12bc edbc cad0 513d
00000040: 952d d4bd a39f e63d 5d9a 8fbd 61bc aebb
00000050: c9d4 dfbc 5b28 d53d 3ca0 d1bd c8cb 893c
00000060: 1725 30bd 07d0 1f3c bea6 ae3c a435 9abd
00000070: 83aa 543d 7aee 5fbd ca36 96bc bce6 9bbd

bn2.weight f4 [32]
0.9865063 1.0185076 1.023732 0.99498504 0.98771423 1.0129395 0.9750804 1.0015715
1.0310572 0.99829715 1.0246849 1.0077451 0.99576086 1.0433526 1.0389352 0.9936157
0.9841957 1.0078365 1.0177262 1.0036366 0.98824656 1.0023768 1.0322703 0.9923716
0.98746383 1.016647 1.0035568 1.0003074 1.0416273 0.9929935 1.0114106 1.0175297
00000000: ad8b 7c3f 755e 823f a609 833f 57b7 7e3f
00000010: d7da 7c3f 00a8 813f de9e 793f 7f33 803f
00000020: aff9 833f 6790 7f3f e028 833f cbfd 803f
00000030: 2fea 7e3f 948c 853f d4fb 843f 995d 7e3f
00000040: 40f4 7b3f c900 813f da44 823f 2a77 803f
00000050: bafd 7c3f e24d 803f 6f21 843f 110c 7e3f
00000060: 6eca 7c3f 7d21 823f 8d74 803f 130a 803f
00000070: 0b54 853f d234 7e3f e775 813f 6a3e 823f

bn2.bias f4 [32]
-0.00018751412 0.011941446 0.018358583 0.012788791 -0.0077850632 -0.0047930446 -0.03501648 -0.015231829
0.009651188 -0.008078244 -0.0054608453 -0.008503951 -0.009035718 0.041523255 0.028525723 0.024735628
-0.022441557 -0.0017921496 4.7467416e-05 -0.0009571996 -0.017958814 0.010802143 0.0249275 -0.011815412
0.0034793061 0.033033162 -0.006018647 -0.0015981586 0.03642054 -0.013480068 0.010004435 0.0010647622
00000000: 709f 44b9 0ea6 433c bd64 963c 1488 513c
00000010: d819 ffbb f90e 9dbb 716d 0fbd ec8e 79bc
00000020: 0420 1e3c 9c5a 04bc e4f0 b2bb 2854 0bbc
00000030: 8c0a 14bc 4a14 2a3d c7ae e93c 5fa2 ca3c
00000040: 5bd7 b7bc 90e6 eaba c017 4738 94ec 7aba
00000050: 5d1e 93bc 79fb 303c c234 cc3c 6e95 41bc
00000060: 1205 643b c84d 073d 1238 c5bb 4e79 d1ba
00000070: b42d 153d 81db 5cbc a4e9 233c 7e8f 8b3a

bn2.running_mean f4 [32]
0.036539063 -0.14041209 0.11105873 0.23293528 0.1878968 -0.2159806 0.08522762 -0.42775926
-0.099506006 -0.08007595 0.057252645 0.13156599 -0.050167195 -0.14557698 0.02582831 -0.0473068
-0.20318565 -0.035363495 0.4207878 -0.17587683 -0.17930469 -0.009497324 -0.24824445 0.16620268
0.31436065 -0.15892869 -0.18145458 -0.0009451562 0.0068876445 -0.35413203 -0.23351154 0.0121973585
00000000: fca9 153d 30c8 0fbe c272 e33d 9686 6e3e
00000010: 0568 403e 052a 5dbe d28b ae3d 4303 dbbe
00000020: cec9 cbbd dcfe a3bd c081 6a3d 3cb9 063e
00000030: 1e7c 4dbd 2212 15be e495 d33c c6c4 41bd
00000040: e60f 50be 50d9 10bd 8071 d73e 0e19 34be
00000050: a69b 37be aa9a 1bbc cb33 7ebe 0931 2a3e
00000060: e1f3 a03e 34be 22be 3bcf 39be 5cc4 77ba
00000070: c0b1 e13b cb50 b5be a61d 6fbe 6ed7 473c

bn2.running_var f4 [32]
0.5139895 0.32250446 0.38406688 0.35797575 0.34934676 0.31534508 0.4282321 0.31601766
0.37347966 0.31435275 0.39240855 0.35888118 0.42988086 0.33232692 0.3397924 0.33562237
0.332041 0.45450625 0.32466707 0.37326038 0.36899507 0.3449542 0.3594866 0.36490074
0.36196157 0.3363975 0.35843912 0.34889185 0.32832798 0.32078034 0.35722074 0.33537412
00000000: d194 033f 4e1f a53e 6aa4 c43e 9948 b73e
00000010: 94dd b23e e974 a13e 3d41 db3e 11cd a13e
00000020: ba38 bf3e d8f2 a03e c6e9 c83e 46bf b73e
00000030: 5819 dc3e c126 aa3e 45f9 ad3e b2d6 ab3e
00000040: 4701 aa3e 0bb5 e83e c33a a63e fc1b bf3e
00000050: ecec bc3e d69d b03e a10e b83e 45d4 ba3e
00000060: 0753 b93e 4b3c ac3e 5585 b73e f4a1 b23e
00000070: 9b1a a83e 523d a43e a3e5 b63e 28b6 ab3e

fc3.weight f4 [147, 32]
-0.14782174 0.11683723 -0.070989974 -0.09962969 -0.053346306 -0.087620765 0.066071406 0.20446993
-0.11718063 0.0051853675 -0.15396644 -0.11575843 0.09986979 -0.04738116 -0.075712636 0.16913469
-0.055682268 0.0064302594 -0.11257644 0.13179952 -0.017785078 0.15028252 0.006973129 0.0074647423
0.022456257 -0.15015762 0.10517835 -0.026158782 0.14367084 -0.08447301 -0.07070366 0.044938467
-0.07367242 0.025782239 -0.19194826 0.08588779 -0.1621785 -0.1144875 -0.0808715 -0.1469559
-0.18571013 -0.113656856 0.14893472 0.08032284 -0.14149658 -0.13673395 -0.10213676 -0.1330606
0.14586449 0.07497431 0.17508215 -0.10232822 -0.022988567 -0.13250905 -0.11157018 -0.16088666
-0.044487007 -0.13241042 0.057567734 0.103027344 0.09119805 -0.11018575 0.12168406 -0.062249
0.041334596 -0.1104367 -0.12073868 0.012670842 -0.04994263 -0.01625307 0.07627673 -0.03919513
0.085518114 -0.19750303 0.052702043 0.1237751 -0.06977199 0.041419216 0.13132241 -0.0926914
0.10650799 -0.2117187 0.048337016 -0.101818725 -0.05173765 -0.00079214387 -0.12172216 0.16352433
-0.06424199 0.085308835 0.047799416 -0.21245283 -0.19621676 0.18411511 -0.012665412 -0.1203722
-0.15060422 0.19904813 0.05001328 -0.059802685 -0.17596121 -0.015171386 0.093558446 -0.11639262
0.0048078597 0.11440282 0.047049094 0.06737548 0.010441303 0.082974434 0.06470389 0.14826444
0.066177994 -0.05963632 -0.04724014 -0.1501584 0.17103396 -0.084484585 -0.10223663 0.15536377
-0.041304175 -0.17876467 -0.13390572 -0.19432949 -0.0031026588 0.12859774 0.12852687 -0.012039702
-0.17741728 0.06802413 -0.07011977 0.16838191 -0.10840944 0.080138065 0.12322004 -0.16904819
-0.022230877 -0.19347972 0.19128881 0.059206013 -0.017313471 0.03221319 -0.022562677 0.06966492
-0.1587035 -0.09196835 -0.067308635 -0.20387205 -0.11755302 -0.071323805 -0.06901102 0.11812034
0.0341442 0.11094065 -0.14208165 0.15151554 -0.08835378 0.04237844 -0.006023189 -0.028182164
0.013959312 0.091699064 0.14561395 -0.09820262 -0.06530417 0.040602632 0.08511738 0.0517351
-0.16121641 -0.021737995 -0.054974966 0.008594913 -0.059302498 0.03405921 -0.16116029 -0.06709171
-0.06435394 -0.021165334 0.082457356 0.10171651 -0.12723319 -0.14338665 0.08769036 -0.061944123
0.10225375 -0.20408618 0.05118392 -0.17235027 0.14659593 0.05030111 -0.16777526 -0.18338336
0.13569877 -0.13873681 -0.021939706 0.12749597 0.18504831 0.038310908 -0.0020737674 -0.0154985
-0.06094056 -0.021028634 0.0065660486 -0.012401447 -0.08112273 -0.11408589 0.05000882 -0.12142299
0.054537952 -0.19645792 0.16508329 0.03790673 0.10549166 0.042267058 -0.1186116 0.12771186
0.14347719 -0.11393755 -0.036903072 0.1194488 -0.12642388 0.065416194 -0.023109443 -0.04996335
-0.09519339 0.06016712 0.18603007 -0.12904114 0.13780649 -0.11809662 -0.03540795 0.05611994
0.123516634 -0.045517266 -0.060316306 0.14185368 0.12161033 0.16946203 -0.08909918 0.09236341
0.13456468 0.11055779 0.16884592 -0.10086029 0.020186335 0.05284449 -0.14278491 0.100169934
0.14392462 -0.107088916 -0.10526287 -0.18411997 -0.015569442 0.076882385 0.08584301 0.025412858
00000000: 955e 17be 5c48 ef3d 3163 91bd a70a ccbd
00000010: a881 5abd 8472 b3bd 7250 873d 9160 513e
00000020: 66fc efbd 04ea a93b 61a9 1dbe c112 edbd
00000030: 8888 cc3d bf12 42bd 3a0f 9bbd a531 2d3e
00000040: 1713 64bd edb4 d23b 7a8e e6bd 74f6 063e
00000050: 03b2 91bc a9e3 193e d97e e43b cc9a f43b
00000060: 2ff6 b73c ebc2 19be bf67 d73d f14a d6bc
00000070: 731e 133e 2f00 adbd 15cd 90bd 6611 383d
00000080: 91e1 96bd 4635 d33c 168e 44be f0e5 af3d
00000090: 1f12 26be 6c78 eabd f59f a5bd 9c7b 16be
000000a0: cc2a 3ebe edc4 e8bd 5882 183e 4d80 a43d
000000b0: 7be4 10be fc03 0cbe 142d d1bd 0a41 08be
000000c0: 805d 153e 228c 993d bc48 333e 7591 d1bd
000000d0: 8552 bcbc 74b0 07be e87e e4bd 79bf 24be
000000e0: 0238 36bd 9996 07be 25cc 6b3d 0000 d33d
000000f0: 0bc6 ba3d 11a9 e1bd 7e35 f93d cff8 7ebd
00000100: 774e 293d a32c e2bd d745 f7bd 5d99 4f3c
00000110: a590 4cbd 2925 85bc f936 9c3d 138b 20bd
00000120: 1f24 af3d 3c3e 4abe 19de 573d cd7d fd3d
00000130: 9ee4 8ebd 32a7 293d 6279 063e fdd4 bdbd
00000140: dc20 da3d c9cc 58be 09fd 453d 5686 d0bd
00000150: dcea 53bd e0a7 4fba 7849 f9bd ec72 273e
00000160: 4e91 83bd 66b6 ae3d 52c9 433d 3c8d 59be
00000170: 0ced 48be ac88 3c3e 9782 4fbc b385 f6bd
00000180: fe37 1abe 46d3 4b3e bada 4c3d a9f3 74bd
00000190: 2d2f 34be 6891 78bc 929b bf3d 415f eebd
000001a0: 408b 9d3b 074c ea3d 8db6 403d 28fc 893d
000001b0: 0012 2b3c 80ee a93d 7983 843d a2d2 173e
000001c0: 5488 873d 3745 74bd e17e 41bd 20c3 19be
000001d0: 8723 2f3e 4106 adbd 7061 d1bd ae17 1f3e
000001e0: 912e 29bd 160e 37be 951e 09be 4ffe 46be
000001f0: fa55 4bbb 20af 033e 8c9c 033e 2c42 45bc
00000200: e0ac 35be 3c50 8b3d f49a 8fbd 4f6c 2c3e
00000210: c505 debd 6d1f a43d ca5a fc3d f81a 2dbe
00000220: 871d b6bc 8c1f 46be 37e1 433e 0182 723d
00000230: fbd4 8dbc faf1 033d 5dd5 b8bc 7bac 8e3d
00000240: 2c83 22be e759 bcbd 1cd9 89bd d6c3 50be
00000250: a3bf f0bd 3712 92bd a655 8dbd 14e9 f13d
00000260: cada 0b3d da34 e33d da7d 11be e426 1b3e
00000270: d4f2 b4bd 0495 2d3d 2c5e c5bb 48de e6bc
00000280: 99b5 643c b8cc bb3d d31b 153e 751e c9bd
00000290: 31be 85bd f24e 263d 0552 ae3d 2fe8 533d
000002a0: ea15 25be e113 b2bc 6e2d 61bd aed1 0c3c
000002b0: 2de7 72bd ac81 0b3d 3407 25be 6167 89bd
000002c0: 00cc 83bd ec62 adbc 67df a83d bf50 d03d
000002d0: 6b49 02be f3d3 12be 0197 b33d 1fb9 7dbd
000002e0: 6a6a d13d f8fb 50be 3ba6 513d 977c 30be
000002f0: 3e1d 163e 8908 4e3d 47cd 2bbe d9c8 3bbe
00000300: 9ef4 0a3e 0611 0ebe e6ba b3bc 4e8e 023e
00000310: 4e7d 3d3e e6eb 1c3d 0be8 07bb 6ced 7dbc
00000320: cf9c 79bd 3e44 acbc 0228 d73b 702f 4bbc
00000330: ad23 a6bd dda5 e9bd 0cd6 4c3d 9eac f8bd
00000340: 3063 5f3d 442c 49be 980b 293e 1644 1b3d
00000350: 030c d83d 3920 2d3d a3ea f2bd e6c6 023e
00000360: afeb 123e 1758 e9bd ad27 17bd 93a1 f43d
00000370: 4375 01be edf8 853d 0450 bdbc 5fa6 4cbd
00000380: c1f4 c2bd cc71 763d ab7e 3e3e 5c23 04be
00000390: 251d 0d3e a4dc f1bd ed07 11bd 06de 653d
000003a0: 4af6 fc3d 5070 3abd 3b0e 77bd 1742 113e
000003b0: d60e f93d 7487 2d3e a279 b6bd 0729 bd3d
000003c0: 53cb 093e 1f6c e23d f2e5 2c3e d78f cebd
000003d0: d05d a53c 7773 583d 3536 12be e525 cd3d
000003e0: fa60 133e 6f51 dbbd 0f94 d7bd f289 3cbe
000003f0: f916 7fbc 8374 9d3d 76ce af3d a02e d03c

fc3.bias f4 [147]
0.05422374 0.10287993 0.01882899 -0.1252629 0.016214652 0.03623935 0.111830704 -0.050333787
-0.103406355 -0.055825163 0.12428432 0.06618655 0.03159178 -0.07125139 -0.11119235 0.056858357
0.073759995 0.038065884 -0.113368526 -0.033395212 -0.12899253 0.052319672 0.041007113 -0.13111264
-0.088825926 -0.098133326 -0.06213128 0.013033344 -0.1635146 -0.13142775 0.012029594 0.12188265
-0.014896384 0.040822465 0.061172042 0.0127230035 0.09715046 0.21473257 0.053008724 -0.101781175
-0.15244724 -0.06421091 0.030409848 -0.03294441 0.1676311 0.19438303 -0.12550169 0.20173754
0.09429638 -0.09385993 0.15551877 0.076001234 -0.14716624 -0.13679229 0.097242445 0.08177567
0.12657253 -0.12029506 0.032285377 0.0741512 -0.11874141 0.040093526 -0.016404346 0.0034642392
0.08094595 -0.033196114 0.18956468 0.07340112 -0.106909364 0.07086482 0.10977937 -0.12402981
0.038997505 0.06136446 -0.006505162 0.113239884 -0.09142193 -0.081081115 0.06847503 0.09376656
0.06958368 -0.09411755 -0.03186598 -0.12423209 0.122926846 -0.0701513 -0.066034764 0.0043302244
-0.026245667 0.033149473 0.09981697 -0.18263128 0.025306597 0.03781479 -0.08914467 0.041850206
-0.10634757 -0.041573223 0.08775789 -0.014308512 0.085327886 -0.11652393 -0.009184118 0.099013515
0.014187409 -0.12576969 0.15385568 0.08186508 -0.006460045 -0.11531416 0.07361755 -0.11304677
-0.11334801 0.0974994 0.11357579 0.09684774 -0.1762387 0.05161319 0.075417705 -0.15223308
0.19530797 -0.10617109 -0.13155156 0.0451952 -0.021663966 0.07764825 -0.035881113 0.09054744
0.0020769723 0.0034677892 0.043377478 0.012889712 -0.06319001 0.08683569 -0.060421415 0.15580541
-0.064907946 0.08146467 0.034531105 -0.07380972 0.1235169 0.055786196 0.011732218 0.051104046
-0.016192209 0.15060383 -0.07850822
00000000: b619 5e3d b6b2 d23d 413f 9a3c eb44 00be
00000010: 97d4 843c b66f 143d 7f07 e53d cd2a 4ebd
00000020: b6c6 d3bd eda8 64bd c788 fe3d d08c 873d
00000030: 6266 013d 40ec 91bd d1b8 e3bd 4fe4 683d
00000040: 7b0f 973d f9ea 1b3d c22d e8bd 6bc9 08bd
00000050: 9e16 04be 274d 563d 13f7 273d 6442 06be
00000060: 5eea b5bd 20fa c8bd 5e7d 7ebd cf89 553c
00000070: 5f70 27be ff94 06be c617 453c 9c9d f93d
00000080: f70f 74bc 7535 273d 898f 7a3d 2574 503c
00000090: d2f6 c63d dbe2 5b3e ad1f 593d a672 d0bd
000000a0: 211b 1cbe 0281 83bd 131e f93c b8f0 06bd
000000b0: 7da7 2b3e 580c 473e 8483 00be 4994 4e3e
000000c0: 761e c13d a339 c0bd 5040 1f3e 89a6 9b3d
000000d0: bfb2 16be 4713 0cbe 0c27 c73d 017a a73d
000000e0: 3b9c 013e 425d f6bd ac3d 043d 96dc 973d
000000f0: b22e f3bd 1c39 243d 6862 86bc 4a08 633b
00000100: fdc6 a53d a6f8 07bd 3e1d 423e 5453 963d
00000110: 4cf3 dabd 9321 913d 02d4 e03d 5703 febd
00000120: d9bb 1f3d 4d59 7b3d 4129 d5bb 50ea e73d
00000130: 6c3b bbbd db0d a6bd a33c 8c3d af08 c03d
00000140: e381 8e3d b4c0 c0bd e785 02bd 656d febd
00000150: 12c1 fb3d 7cab 8fbd 3c3d 87bd 8ee4 8d3b
00000160: 2701 d7bc bec7 073d d76c cc3d b203 3bbe
00000170: c84f cf3c aee3 1a3d 7b91 b6bd 1f6b 2b3d
00000180: c1cc d9bd af48 2abd 69ba b33d 406e 6abc
00000190: 63c0 ae3d 19a4 eebd fc78 16bc 99c7 ca3d
000001a0: 4e72 683c c5c9 00be 588c 1d3e e1a8 a73d
000001b0: c9ae d3bb d529 ecbd ccc4 963d 1185 e7bd
000001c0: 0023 e8bd c4ad c73d 6c9a e83d 1c58 c63d
000001d0: eb77 34be 5a68 533d 9974 9a3d fde2 1bbe
000001e0: d0fe 473e 3a70 d9bd 74b5 06be 9a1e 393d
000001f0: a178 b1bc 0c06 9f3d 13f8 12bd f070 b93d
00000200: d01d 083b d943 633b 95ac 313d 5f2f 533c
00000210: c469 81bd e9d6 b13d 727c 77bd 748b 1f3e
00000220: 75ee 84bd f3d6 a63d 7d70 0d3d 8d29 97bd
00000230: 6ef6 fc3d 1180 643d 7d38 403c 7a52 513d
00000240: 86a5 84bc e437 1a3e ebc8 a0bd
